logs/rough_wla/exported/policies/policy.onnx (onnx, 718472 bytes, 8 tensors)

0.bias f4 [512]
0	0xbe34c889	-0.17654623
1	0xbe2ee93d	-0.17081161
2	0x3dca4249	0.09875924
3	0x3c2b613c	0.010460194
4	0x3e7e1c25	0.24815424
5	0xbe8239af	-0.25434634
6	0xbea4deb1	-0.3220115
7	0x3dded473	0.10880365
8	0xbc1e27a4	-0.009653006
9	0x3d91b695	0.07114903
10	0x3eb410b2	0.35168988
11	0x3eac36ad	0.33635464
12	0xbdd20faa	-0.10256894
13	0xbe8a19a3	-0.26972684
14	0xbe1ac5f7	-0.1511458
15	0xbe8d5677	-0.2760503
16	0xbd946a5d	-0.0724685
17	0xbeaf4ebb	-0.34239754
18	0x3e6c73c8	0.23091042
19	0xbec3d54c	-0.3824867
20	0xbb9c061a	-0.0047614696
21	0xbd9f7bc6	-0.0778728
22	0xbe70ea93	-0.23526983
23	0x3eb00625	0.34379688
24	0x3e95e57a	0.2927664
25	0x3e9bd6ea	0.30437404
26	0x3e8cbaf7	0.27486393
27	0x3e86a061	0.26294234
28	0xbe9b92c8	-0.30385423
29	0xbe3f6918	-0.18692434
30	0x3e2fc854	0.17166263
31	0xbca685e8	-0.020327523
32	0x3e5cb5e0	0.21553755
33	0x3df0c426	0.11756162
34	0x3df4cb09	0.119527884
35	0x3da206d9	0.07911462
36	0xbe12f043	-0.14349465
37	0x3e1b5c73	0.15171985
38	0x3e259cef	0.16173147
39	0xbe89f0f0	-0.26941633
40	0x3e934632	0.28764492
41	0x3e06dc27	0.13169919
42	0x3e168e1b	0.14702646
43	0xbdd8423c	-0.10559508
44	0xbc12347c	-0.008923646
45	0x3e7acc23	0.24491934
46	0x3de7380e	0.112899885
47	0xbe7ab955	-0.24484761
48	0xbe0e2245	-0.1388026
49	0x3e05090f	0.12991737
50	0xbe2ae460	-0.1668868
51	0xbe1dae05	-0.15398414
52	0xbe177e75	-0.14794333
53	0xbd895d92	-0.067073
54	0xbeb6baaf	-0.35689303
55	0xbdc14fdc	-0.0943906
56	0xbde4c868	-0.11171037
57	0xbea0655f	-0.3132734
58	0x3e933203	0.28749093
59	0x3e6bb222	0.23017171
60	0xbdb9b8c6	-0.09068446
61	0x3e88353d	0.26603118
62	0xbead83d5	-0.33889642
63	0xbe4de430	-0.20106578
64	0xbe0abf1e	-0.13549468
65	0xbd63232d	-0.055453468
66	0x3bc4b8e4	0.006003486
67	0xbe6808a4	-0.22659546
68	0x3e356c1b	0.1771702
69	0xbdbf59e3	-0.093433164
70	0x3dc820b7	0.09771865
71	0x3e39eed6	0.18157515
72	0xbe9491ec	-0.2901758
73	0xbe845c34	-0.25851595
74	0x3eac30ba	0.33630925
75	0xbd83b38e	-0.06430732
76	0xbee246ee	-0.4419474
77	0x3e3764d8	0.17909563
78	0xbe217774	-0.15768224
79	0x3e862b1d	0.26204768
80	0x3e248679	0.16066922
81	0x3e5e1177	0.2168635
82	0x3cc03173	0.02346108
83	0xbe966c35	-0.2937943
84	0xbd04db95	-0.032435972
85	0xb9927130	-0.0002793162
86	0x3e3aef11	0.18255259
87	0x3eaf06d9	0.34184912
88	0xbe93738c	-0.28799093
89	0x3ee4e34c	0.44704664
90	0x3d2763bb	0.040866595
91	0xbdef7f59	-0.116942115
92	0x3de94635	0.11390344
93	0x3dad80cc	0.08471832
94	0xbdfd6c21	-0.123741396
95	0x3e67973f	0.2261629
96	0xbea0f722	-0.31438547
97	0x3e8ca06e	0.27466148
98	0xbd0431a8	-0.03227392
99	0xbe707ddf	-0.23485516
100	0xbe553663	-0.20821528
101	0xbeb67573	-0.35636482
102	0xbe5a54b0	-0.21321368
103	0xbeb89bd0	-0.36056376
104	0x3d6a9dff	0.057279583
105	0x3dead7ad	0.11466918
106	0x3eac20c0	0.33618736
107	0xbe0ed6ff	-0.13949202
108	0xbcd08373	-0.025453305
109	0x3dc8af67	0.0979908
110	0x3ea307f6	0.3184201
111	0xbe065a74	-0.13120443
112	0xbe93d0c4	-0.28870213
113	0xbbf013ad	-0.0073265643
114	0xbea6a1c5	-0.32545295
115	0xbebbbaa4	-0.36665833
116	0x3ebb9a92	0.36641365
117	0xbe002415	-0.12513764
118	0x3e979a99	0.29610136
119	0x3cb69e7f	0.022292374
120	0x3ee093ef	0.43862864
121	0x3d67bb28	0.05657497
122	0x3b3e0a6d	0.0028997913
123	0x3ebcaa0f	0.36848494
124	0xbe807e7f	-0.2509651
125	0xbe3ce038	-0.18444908
126	0x3e365a2b	0.17807834
127	0x3e5838ff	0.21115492
128	0xbe571500	-0.21004105
129	0xbe259d3b	-0.1617326
130	0xb9e2a8df	-0.00043231898
131	0xbe1689c3	-0.1470099
132	0x3ec9c685	0.3940927
133	0x3e33ddd3	0.17565088
134	0xbe6c4d08	-0.2307626
135	0xbe0efb26	-0.13962993
136	0xbe615afe	-0.22007367
137	0xbea3b967	-0.31977388
138	0x3ca173c3	0.01970852
139	0xbe96534f	-0.29360434
140	0xbe9ab768	-0.30218053
141	0x3f0016fd	0.5003508
142	0x3d98ec8e	0.07466994
143	0xbe07b679	-0.13253202
144	0xbdda19ae	-0.10649429
145	0xbc9b8067	-0.018982125
146	0xbd858e9f	-0.065213434
147	0xbea1a00f	-0.31567428
148	0x3eca6c8d	0.39535943
149	0x3e8a68ca	0.27033073
150	0x3c319dd7	0.010840855
151	0xbebdf952	-0.3710428
152	0x3d5f52a3	0.054522168
153	0xbe523122	-0.20526555
154	0x3cbccbe5	0.023046443
155	0xbe82b150	-0.25525904
156	0xbdea5bc4	-0.11443284
157	0x3ea984c9	0.3310912
158	0x3e9d2ced	0.30698338
159	0x3da83b2a	0.0821441
160	0x3db18c89	0.08669383
161	0xbe5d2298	-0.21595228
162	0xbe83f32d	-0.25771466
163	0xbddb3250	-0.10702956
164	0x3e2134d4	0.15742809
165	0x3e378b0d	0.17924137
166	0x3ee2c1dd	0.4428853
167	0x3e847089	0.25867108
168	0x3decb3f0	0.11557758
169	0x3de6374e	0.11241017
170	0x3e80e513	0.2517477
171	0x3e12382f	0.14279245
172	0x3e07e2cc	0.1327011
173	0x3e3570af	0.17718767
174	0x3e1c4ba6	0.15263233
175	0x3eb12645	0.3459951
176	0x3e64fffe	0.22363278
177	0x3e3f02b6	0.18653378
178	0xbe96568b	-0.29362902
179	0xbcee76e4	-0.029109426
180	0xbdc30924	-0.09523228
181	0xbe95cf58	-0.29259753
182	0x3e764d6e	0.24052975
183	0x3ea9b974	0.33149302
184	0x3e4e6d75	0.20158942
185	0x3e82e90a	0.2556842
186	0x3e9855bf	0.2975292
187	0xbdb72105	-0.08941845
188	0x3e930392	0.2871366
189	0x3c568579	0.013093346
190	0xbdc7f9e4	-0.0976446
191	0xbdca59d8	-0.098804176
192	0xbdc9bc03	-0.098503135
193	0xbd752b00	-0.05985546
194	0xbe4a9853	-0.1978467
195	0x3ec17f80	0.37792587
196	0xbe8f1bd9	-0.27950934
197	0x3e18c5f9	0.1491927
198	0x3e03f13d	0.12884994
199	0xbe303789	-0.17208685
200	0x3e884a85	0.26619354
201	0x3eb5b237	0.3548753
202	0x3d89c7b9	0.06727547
203	0xbe02fbbb	-0.1279134
204	0x3e97433f	0.29543492
205	0x3e06650d	0.13124485
206	0xbe7d8bcc	-0.2476036
207	0xbe6b1d27	-0.2296034
208	0x3af98358	0.0019036336
209	0xbe434529	-0.19069351
210	0x3d39d27c	0.04536675
211	0x3d30c19a	0.043153383
212	0xbd2382d6	-0.039919697
213	0xbe71b525	-0.23604257
214	0x3bf370f1	0.007429235
215	0x3e64b8af	0.22336076
216	0x3e7e9776	0.24862465
217	0xbdba7b27	-0.09105521
218	0xbed1787d	-0.40912238
219	0xbe454b79	-0.19267072
220	0xbdd7a72f	-0.105299346
221	0xbdeffdc5	-0.117183246
222	0x3df6492d	0.12025676
223	0x3ea54965	0.32282558
224	0x3e89a508	0.2688372
225	0xbdfbff56	-0.12304561
226	0xbe135e51	-0.14391448
227	0x3e974d58	0.29551196
228	0x3d8c55e0	0.06852317
229	0xbe79ff0e	-0.24413702
230	0xbe11e339	-0.14246835
231	0xbe27767c	-0.16353792
232	0xbdbb1941	-0.09135676
233	0x3e4d9899	0.20077743
234	0x3e0fda38	0.14048088
235	0xbe4e8704	-0.20168692
236	0x3eb1e480	0.34744644
237	0x3c23a0b5	0.009987046
238	0xbe51fdf3	-0.2050703
239	0x3e983dbc	0.297346
240	0xbdf533a4	-0.1197274
241	0x3d7ee89b	0.06223355
242	0xbe6a498b	-0.22879617
243	0xbe7dc816	-0.24783358
244	0x3d81af1f	0.0633223
245	0x3e9009b8	0.28132415
246	0xbe8885d5	-0.26664606
247	0x3c8dfedc	0.01733344
248	0xbee2e2e0	-0.44313717
249	0x3ebb0466	0.36526793
250	0x3ed84bb0	0.42245245
251	0x3c5b7410	0.013394371
252	0xbd5fdcde	-0.054653995
253	0xbe58a6e1	-0.21157409
254	0x3ea39c92	0.3195539
255	0xbeb2523b	-0.34828362

2.bias f4 [256]
0	0xbc6b99f1	-0.014379964
1	0xbe1ebd40	-0.1550188
2	0xbd884927	-0.06654578
3	0xbc9f56cd	-0.01945057
4	0x3d1adf88	0.037810832
5	0xbdeb36ab	-0.114850365
6	0xbcd89a00	-0.02644062
7	0xbe9b5f9f	-0.3034639
8	0xbca3be8b	-0.019988319
9	0xbbe5a66a	-0.0070083635
10	0xbcba73c3	-0.022760278
11	0xbde5b2e5	-0.11215762
12	0xbe8182ee	-0.25295204
13	0xbd564e8f	-0.052321013
14	0xbe565b0c	-0.20933169
15	0xbd89bbe5	-0.06725291
16	0x3d9e80bb	0.07739397
17	0x3d0b5444	0.03401591
18	0xbe9fc79c	-0.31206977
19	0xbc5bb341	-0.013409437
20	0xbe53caa0	-0.20682764
21	0x3d323aef	0.043513235
22	0x3c13d91a	0.009023929
23	0xbd64ef3c	-0.055892214
24	0xbe896704	-0.26836407
25	0x3cd786dd	0.026309425
26	0x3b91ebe7	0.0044531706
27	0x38d91904	0.00010352026
28	0xbe01bb49	-0.126691
29	0xbde3a10a	-0.111147
30	0xbe2b0019	-0.16699256
31	0xbdd646d8	-0.10462731
32	0x3c1400cf	0.009033396
33	0xbdd212a2	-0.1025746
34	0x3b727d68	0.0037001017
35	0xbdeb6e56	-0.11495654
36	0x3c98324d	0.018578673
37	0xbdacfa21	-0.08446146
38	0xbd70acc3	-0.05875851
39	0x3d1d441a	0.038395025
40	0xbb4cb9df	-0.0031238717
41	0x3d186eab	0.037214916
42	0xbd12c68b	-0.035833877
43	0xbdc47b5c	-0.095938414
44	0x3c8ff4d9	0.017572807
45	0xbdd1ca5c	-0.10243675
46	0x3d51d5ff	0.051229473
47	0xbd6a347f	-0.05717897
48	0xbd02f359	-0.031970356
49	0xbd8166b6	-0.06318419
50	0x3cf64721	0.030063214
51	0xbdaa8b31	-0.0832733
52	0x3ba7c52d	0.0051199407
53	0x3c80364f	0.015650896
54	0x3c813ef3	0.015777087
55	0xbd045ebd	-0.032316912
56	0xbbc5ef81	-0.006040514
57	0xbdd1da49	-0.10246713
58	0xbe3547fe	-0.17703244
59	0xbd655b5b	-0.055995326
60	0xbd1e8300	-0.03869915
61	0xbe8c86a5	-0.27446476
62	0xbdbfe3ad	-0.093695976
63	0x3bc59ebd	0.006030886
64	0xbcf67797	-0.030086322
65	0xbdab07d6	-0.08351104
66	0xbe7c3b84	-0.24632078
67	0x3d47ba7b	0.048761826
68	0x3db25ebc	0.087094754
69	0xbd13075c	-0.03589569
70	0xbe53c401	-0.20680238
71	0xbe2cda73	-0.16880207
72	0xbccbda62	-0.024884406
73	0x3dbcf205	0.09225849
74	0xbd93c408	-0.07215124
75	0xbcf1b28d	-0.029504085
76	0xbdcd5b76	-0.100272104
77	0xbb571cec	-0.0032823635
78	0x3d260e0e	0.040540747
79	0xbe1d0c4d	-0.15336724
80	0xbe9fb89c	-0.31195533
81	0x3d183f00	0.037169456
82	0xbca19835	-0.019725898
83	0xbd8a5991	-0.06755365
84	0x3d68f2ff	0.056872364
85	0x3d5f6fd0	0.054549992
86	0xbe09a5ac	-0.13442105
87	0xbd624da0	-0.05524981
88	0xbd8321f3	-0.0640296
89	0xbd313430	-0.04326266
90	0xbe06ca82	-0.13163188
91	0xbdc661d1	-0.09686626
92	0xbe502b1b	-0.20328943
93	0xbea23c9a	-0.3168686
94	0xbd1a8c20	-0.03773129
95	0xbdf144a7	-0.117806725
96	0xbe41b552	-0.18916824
97	0xbe77a811	-0.24185206
98	0xbdaa35e1	-0.08311058
99	0xbdc0be86	-0.094113395
100	0x3d37d71f	0.04488289
101	0xbe8097e1	-0.25115874
102	0xbda2f344	-0.079565555
103	0xbce736c5	-0.028224358
104	0xbe4b47d6	-0.19851622
105	0xbca21446	-0.019785058
106	0x3ceb92a5	0.028756449
107	0x3cbd57fc	0.023113243
108	0xbd72ff61	-0.05932558
109	0xbd5f06ef	-0.05444997
110	0xbd24c298	-0.04022464
111	0xbbd2bebe	-0.0064314296
112	0xbc540403	-0.01294041
113	0xbdb04e7b	-0.08608719
114	0xbd3ce012	-0.046112128
115	0xbd8aa3b9	-0.06769509
116	0xbdbde21d	-0.09271643
117	0xbdd1b6d0	-0.10239947
118	0xbe467913	-0.19382124
119	0xbdcd38d2	-0.10020603
120	0xbedd5c4a	-0.43234473
121	0xbd56e407	-0.052463558
122	0x3ccdd68f	0.025126724
123	0xbd440864	-0.047859564
124	0xbd2bcebd	-0.041945208
125	0xbe1b96aa	-0.15194193
126	0xbd6c320e	-0.057664923
127	0xbe292c32	-0.16520765
128	0xbe558c7d	-0.20854373
129	0xbd7ec513	-0.062199663
130	0x3cb699bb	0.022290101
131	0xbe4520e7	-0.19250832
132	0xbece9726	-0.40349692
133	0x3db3dc60	0.087822676
134	0xbd1159b4	-0.03548594
135	0xbe0059c5	-0.12534244
136	0xbd477f2d	-0.04870527
137	0xbd0ef2e0	-0.034899592
138	0xbe58cba5	-0.21171434
139	0xbd9d3fa8	-0.07678157
140	0xbdb4344f	-0.087990396
141	0x3cd48f62	0.025947277
142	0xbd79bfb1	-0.060973827
143	0xbd196a61	-0.037454966
144	0xbcef4a84	-0.029210337
145	0xbe09feea	-0.13476148
146	0xbe241bb6	-0.16026196
147	0xbe9fb170	-0.31190062
148	0xbe021838	-0.12704551
149	0xbbfe73fd	-0.0077652917
150	0xbcb6ff21	-0.022338452
151	0xbdbaea23	-0.09126689
152	0xbb6e9d36	-0.0036409623
153	0xbde1143f	-0.1099019
154	0xbdf74dc3	-0.12075379
155	0xbe1f5566	-0.1555992
156	0x3bc1aceb	0.005910506
157	0xbd5ca1ec	-0.05386536
158	0xbc8a4f5a	-0.01688354
159	0xbcc28525	-0.023745129
160	0x3d2a2308	0.041537315
161	0xbe4b5698	-0.19857252
162	0xbe199c43	-0.15001015
163	0xbe400be5	-0.18754537
164	0xbd7511fe	-0.05983161
165	0xbd8dec08	-0.06929785
166	0xbe45db08	-0.19321835
167	0xbe9bf99f	-0.30463883
168	0xbde683d9	-0.11255617
169	0xbc80ccda	-0.01572268
170	0xbbc1358f	-0.0058962773
171	0xbcb79484	-0.022409685
172	0x3d992f07	0.07479673
173	0xbd5772af	-0.052599605
174	0x3dcc7f49	0.09985215
175	0x3da5dd3a	0.08098836
176	0xbed89edd	-0.42308703
177	0xbdde26df	-0.10847258
178	0xbe1a6f87	-0.15081607
179	0x3ca61254	0.020272411
180	0xbd09efe8	-0.033676058
181	0x3c253fea	0.010086039
182	0xbd847533	-0.064676665
183	0xbe7137b6	-0.23556408
184	0xbdccacf0	-0.09993923
185	0xbd3e6a54	-0.04648812
186	0xbdd0b4ce	-0.10190736
187	0xbd0d8007	-0.034545925
188	0xbd2fdec1	-0.042937044
189	0x3d6f99bc	0.058496222
190	0x3d386e6d	0.045027185
191	0xbe3ce284	-0.18445784
192	0x3d741b47	0.059596326
193	0x3c5d729f	0.013516097
194	0xbe411c54	-0.18858463
195	0xbdd302d4	-0.10303274
196	0xbc5b6450	-0.013390616
197	0xbd6ca1cc	-0.05777149
198	0x3c0e3fa1	0.0086821625
199	0x3c869edf	0.016433178
200	0xbcbec66d	-0.023287976
201	0xbd085e3b	-0.03329299
202	0xbe3c2adb	-0.18375723
203	0xbd80881e	-0.06275962
204	0xbdb65349	-0.08902604
205	0xbcc656b2	-0.024211261
206	0x3d4ac97c	0.049508557
207	0xbbf68d6c	-0.007524183
208	0xbd46cc14	-0.048534468
209	0xbd111849	-0.03542355
210	0xbe88e61d	-0.26738063
211	0xbda5cee1	-0.080961
212	0xbcba71fc	-0.02275943
213	0xbdb33284	-0.087498695
214	0x3d90f3cb	0.0707775
215	0xbc87f7d1	-0.01659766
216	0xbdc274b6	-0.09494917
217	0x3ccce378	0.02501081
218	0x3d8cf0d5	0.068818726
219	0xbd599671	-0.053121988
220	0xbd9d22b1	-0.076726325
221	0x3d3e6219	0.046480272
222	0x3d0bb7a6	0.034110688
223	0xbe272100	-0.16321182
224	0x3d9b94aa	0.07596715
225	0xbde66116	-0.112489864
226	0x3c7b1f63	0.015327307
227	0xbcfd000e	-0.030883815
228	0xbe891e9c	-0.26781166
229	0x3c8d6f8b	0.017265102
230	0xbdbefb3b	-0.09325262
231	0xbcd601ff	-0.026123999
232	0x3dcfe9ea	0.101520374
233	0xbddd3f2c	-0.10803065
234	0xbd963fab	-0.073363625
235	0x3d15eeb1	0.036604587
236	0xbda9ec74	-0.08297053
237	0xbd694a92	-0.05695588
238	0xbd8ec78b	-0.069716536
239	0x3da604d6	0.08106391
240	0x3d903dfe	0.07043074
241	0xbd4dc886	-0.050240062
242	0x3c1dc3ad	0.009629172
243	0x3cf42a4b	0.029805323
244	0xbdf896ef	-0.12138163
245	0xbd729ca9	-0.059231434
246	0xbd995c77	-0.074883394
247	0xbdc3bbf9	-0.09557337
248	0xbe16408b	-0.14673059
249	0xbd9cc57a	-0.07654853
250	0xbd2a0667	-0.041510012
251	0x3ccfd69c	0.025370888
252	0xbe81c2a1	-0.25343803
253	0xbd21869b	-0.03943501
254	0x3cfca17b	0.030838719
255	0xbda8f1b5	-0.08249227

4.bias f4 [128]
0	0xbce6741c	-0.028131537
1	0x3c200a92	0.009768145
2	0xbd63593f	-0.055505034
3	0xbe2273b0	-0.15864444
4	0x3c5d7f83	0.013519171
5	0xbda23fae	-0.07922302
6	0xbde6e3bd	-0.112739064
7	0xbd17e0d1	-0.037079636
8	0xbba6ead2	-0.0050939107
9	0x3c39e30a	0.011345634
10	0x3aa0e98a	0.0012276631
11	0xbd538d76	-0.05164858
12	0xbca3ff6c	-0.020019256
13	0x3c3faa92	0.011698382
14	0xbd51ee17	-0.05125245
15	0xbd03a322	-0.032137997
16	0x3c84cd11	0.016211065
17	0xbd9bb286	-0.0760241
18	0x3e34f8da	0.17673054
19	0xbcc60902	-0.024174217
20	0x3b8cf75e	0.0043019494
21	0xbd4bf565	-0.049794573
22	0xbd830707	-0.06397825
23	0xbc138bcb	-0.009005497
24	0x3c33ebcf	0.010981514
25	0xbe01b691	-0.126673
26	0xbdd45721	-0.10368181
27	0x3cd55a0e	0.026043918
28	0xbc4bcfe7	-0.0124397045
29	0xbb77fd34	-0.003784013
30	0x3bd6c505	0.0065542483
31	0xbd95910b	-0.073030554
32	0x3a9d5aac	0.0012005172
33	0xbcbb6fe4	-0.022880502
34	0xbd3da6c2	-0.04630161
35	0x3add15b7	0.0016867433
36	0xbc561513	-0.013066548
37	0xbd0fde12	-0.035123892
38	0xbc6ce91c	-0.0144598745
39	0xbbe1cc6d	-0.0068908245
40	0xbce8c116	-0.028412383
41	0xbc15f1e4	-0.0091519095
42	0x3ba29186	0.0049611954
43	0xbcb848d9	-0.022495674
44	0xbdb6baac	-0.089223236
45	0xbe398a27	-0.18119107
46	0xbc56f432	-0.013119744
47	0xbc1c28ed	-0.009531242
48	0xbe53e00e	-0.20690939
49	0xbd2ff7da	-0.04296098
50	0xbda97d46	-0.08275847
51	0x3decafc1	0.1155696
52	0xbc6c171a	-0.014409805
53	0xbd814a63	-0.06313016
54	0xbca765fd	-0.020434374
55	0xbcde0d0e	-0.027105834
56	0xbb339916	-0.0027404479
57	0xbd54009b	-0.05175839
58	0xbc5e2f87	-0.013561136
59	0xbdc99805	-0.098434485
60	0xbd8aec72	-0.067833796
61	0x3ca8f9c6	0.020626914
62	0xbda736b0	-0.08164728
63	0xbcf49679	-0.029856907
64	0x3afc63fc	0.0019255872
65	0xbd98ff2e	-0.07470547
66	0xbcf3117c	-0.029671423
67	0xbb6dca56	-0.0036283932
68	0xbe096c72	-0.13420275
69	0x3cd54e61	0.02603835
70	0xbcf441d5	-0.029816547
71	0xbda362ea	-0.07977851
72	0xbd8335d8	-0.06406754
73	0xbdd8d882	-0.105881706
74	0x3c9c37f2	0.019069646
75	0xbd7a36b4	-0.061087325
76	0x3ba04355	0.004890839
77	0xb8cb8c65	-9.705945e-05
78	0xbdeb7388	-0.11496645
79	0xbee2c816	-0.44293278
80	0xbd74f4ef	-0.0598039
81	0x3b9f34ef	0.004858605
82	0x3c65a623	0.014016661
83	0xbd9cea31	-0.07661856
84	0x3c15a70f	0.009134068
85	0xbd50980e	-0.05092626
86	0xbbc35462	-0.005960987
87	0xbd017437	-0.03160497
88	0xbc80def0	-0.015731305
89	0xbda25ef6	-0.079282686
90	0x3e0ef434	0.13960344
91	0x39c831a6	0.00038183964
92	0xbcb12e2c	-0.021628462
93	0xbcd43ac0	-0.02590692
94	0xbca552e4	-0.020181127
95	0xbc4e0ae4	-0.012575839
96	0xbe0ec4a1	-0.13942195
97	0xbd02ba35	-0.031915862
98	0xbdbb773d	-0.09153602
99	0x3e0b7125	0.1361738
100	0x3da32af5	0.07967178
101	0xbd86c23b	-0.06580015
102	0xbe0723a7	-0.13197194
103	0xbecb8809	-0.39752224
104	0xbc9c9b55	-0.019117037
105	0xbc722ba2	-0.014780911
106	0xbd6a41a4	-0.057191506
107	0xbbde97b8	-0.0067929886
108	0xbcdba26c	-0.026810847
109	0xbde88dc2	-0.11355163
110	0xbc836400	-0.016038895
111	0xbd359c01	-0.04433823
112	0xbe921bc2	-0.28536803
113	0xbd46375f	-0.04839265
114	0xbcef4731	-0.029208751
115	0xbd4b5e35	-0.04965039
116	0xbb986cc2	-0.004651637
117	0xbc61a7a6	-0.013772881
118	0x3df03cf7	0.11730378
119	0xbc82bec5	-0.015960107
120	0xbbc8f9db	-0.0061333007
121	0xbb914614	-0.004433403
122	0xbe92ce70	-0.28673124
123	0x3ca0e2f3	0.019639468
124	0xbd33ca83	-0.043894302
125	0x3cbd59ba	0.023114074
126	0xbcebc176	-0.028778773
127	0xbe957205	-0.29188552

6.bias f4 [6]
0	0xbd37f45c	-0.044910774
1	0x3e7f117f	0.24909018
2	0x3cb6d66d	0.022319043
3	0x3de27024	0.110565454
4	0x3f17b6ba	0.59263194
5	0x3e14c435	0.14527972

24 f4 [21, 512]
0	0x3e9ecc8e	0.31015438
1	0xbdc70e49	-0.097195216
2	0x3ed76029	0.42065552
3	0x3f224e35	0.63400584
4	0x3df31d81	0.11870862
5	0xbe670aed	-0.22562762
6	0xbeb3a99d	-0.35090342
7	0xbe1dc6b8	-0.15407836
8	0xbda08dc1	-0.078395374
9	0xbef8b236	-0.48573464
10	0xbb77bb33	-0.0037800788
11	0xbf00850b	-0.5020301
12	0xbd256c5b	-0.04038654
13	0x3f2d19f4	0.67617726
14	0x3eb375e3	0.35050878
15	0xbe9f6f86	-0.31139773
16	0xbeb9c9f9	-0.36286905
17	0x3e42fd1f	0.1904187
18	0x3d8b2256	0.067936584
19	0x3e8c052e	0.27347702
20	0xbeb3ae0c	-0.35093725
21	0x3ed95814	0.4245001
22	0x3f10c34f	0.5654802
23	0xbbc480f7	-0.005996819
24	0xbb82f436	-0.0039963974
25	0xbf0e2d09	-0.5553747
26	0xbe397427	-0.18110715
27	0xbeadb457	-0.3392665
28	0x3efb05be	0.49027818
29	0x3f0fdfa5	0.5620063
30	0x3e99b08d	0.3001751
31	0x3f093c91	0.5360804
32	0xbf1c0cd1	-0.60957056
33	0x3e333c06	0.17503366
34	0xbe077c5d	-0.13231035
35	0x3ee599c5	0.4484388
36	0x3f0f889e	0.56067836
37	0xbd3a3811	-0.045463625
38	0xbee4f26c	-0.44716203
39	0x3cd8834b	0.026429793
40	0x3e9e0fcc	0.30871427
41	0xbe914712	-0.28374535
42	0xbeb7dcc5	-0.3591062
43	0x3e93c917	0.28864357
44	0xbe638253	-0.22217683
45	0xbead1fcc	-0.33813322
46	0xbe11b9fc	-0.14231104
47	0x3ee388ca	0.444403
48	0xbe9d1f4b	-0.30687937
49	0x3eadbe8a	0.33934432
50	0xbed5e15c	-0.41773498
51	0x3eae9fd8	0.34106326
52	0xbf01f4aa	-0.5076395
53	0xbe29ef90	-0.16595292
54	0xbe841a5c	-0.2580136
55	0xbbc63490	-0.0060487464
56	0x3db5b20e	0.08871852
57	0x3d525cb4	0.05135794
58	0xbdae82e5	-0.0852106
59	0xbedb7b09	-0.42867306
60	0x3eb6ce25	0.3570415
61	0xbd66bf48	-0.056334764
62	0x3b9329c5	0.0044910633
63	0x3e7ff018	0.24993932
64	0x3dec8488	0.11548716
65	0xbaa2aa8e	-0.0012410448
66	0xbf0800d4	-0.53126264
67	0xbde00f60	-0.109404325
68	0x3d26328b	0.040575545
69	0xbe7e4983	-0.2483273
70	0xbf177c5a	-0.5917412
71	0x3cd00045	0.025390754
72	0xbecdbbdb	-0.40182385
73	0xbedb4853	-0.42828616
74	0xbf0bcd45	-0.5461009
75	0x3f304501	0.6885529
76	0x3ecdf471	0.40225556
77	0x3eec9e9d	0.46214762
78	0x3c4fb18a	0.012676606
79	0xbec0de39	-0.37669542
80	0xbf18d9fa	-0.59707606
81	0xbe496166	-0.19666061
82	0x3ea65624	0.32487595
83	0x3f0804fe	0.5313262
84	0x3d9c7d44	0.0764108
85	0xbedf9535	-0.43668523
86	0xbe366bf1	-0.17814614
87	0x3e83c5ae	0.25736755
88	0xbeb4e39a	-0.35329896
89	0xbece8809	-0.40338162
90	0x3e50ecda	0.20402852
91	0x3d3e8169	0.046510134
92	0xbeab105c	-0.3341092
93	0x3d8e86ba	0.06959291
94	0xbe75b64a	-0.23995319
95	0x3dc75ab5	0.09734098
96	0xbdf9b3ce	-0.12192498
97	0x3e6cf849	0.23141588
98	0x3e93abd2	0.28842026
99	0xbdabbd38	-0.083857
100	0xbebbb2a1	-0.3665972
101	0x3e3bc3d5	0.18336423
102	0x3e600065	0.2187515
103	0xbcd80e71	-0.026374074
104	0xbe71b5ec	-0.23604554
105	0xbe04746b	-0.12935035
106	0x3d1f12f6	0.038836442
107	0x3ee41249	0.445452
108	0xbeef3ab4	-0.46724474
109	0xbe0230d8	-0.12713945
110	0xbe8e1478	-0.2774999
111	0xbe3bd886	-0.18344316
112	0x3d969552	0.07352699
113	0xbd3f1f0c	-0.046660468
114	0x3e89b02c	0.2689222
115	0x3eb8cc66	0.36093444
116	0xbef7480b	-0.48297152
117	0x3cf3d9d5	0.029766956
118	0xbe91c8df	-0.28473565
119	0x3df476f3	0.1193675
120	0xbe172e7c	-0.14763826
121	0x3d95325b	0.07284995
122	0x3d48f4a5	0.049061436
123	0xbe9ce822	-0.30645853
124	0x3ed7072f	0.41997668
125	0x3ece8e43	0.40342912
126	0x3e95d2be	0.29262346
127	0x3ee5c2de	0.44875234
128	0x3ee8fa46	0.45503443
129	0x3f2c972d	0.67418176
130	0xbc3aed4d	-0.011409116
131	0xbc4e0dbd	-0.012576518
132	0xbe1d45cc	-0.15358657
133	0x3ee4213a	0.445566
134	0xbd1957cc	-0.037437245
135	0x3c2cd6c4	0.010549251
136	0xbda46eab	-0.08028921
137	0xbce8079a	-0.028323937
138	0x3d097ff3	0.033569288
139	0xbd151c14	-0.03640373
140	0xbe5769b5	-0.21036418
141	0xbecb4210	-0.3969884
142	0x3ed11949	0.40839604
143	0x3d87c4e8	0.06629354
144	0x3e6f7f26	0.23388347
145	0xbdf149fd	-0.1178169
146	0x3ee63c6c	0.44967973
147	0x3ebbd797	0.3668792
148	0x3e65bfe8	0.22436488
149	0x3eb97da6	0.36228675
150	0x3e9dabc2	0.30795103
151	0xbbb0ada2	-0.0053917924
152	0x3ef60a87	0.48054907
153	0xbeb0f9c5	-0.3456556
154	0x3ec733a5	0.3890659
155	0x3e6b8559	0.23000087
156	0x3ecfdaf1	0.40596727
157	0xbf2ed534	-0.6829407
158	0xbf178ad5	-0.59196216
159	0x3df44ec0	0.11929083
160	0x3c2bb53b	0.01048022
161	0x3f0ee147	0.55812496
162	0xbcea604c	-0.028610371
163	0xbe21de86	-0.15807542
164	0x3c97cc6e	0.018530097
165	0xbca2578c	-0.019817136
166	0xbec4679c	-0.38360298
167	0xbf453939	-0.7704044
168	0xbec3b27e	-0.38222116
169	0x3edff6f1	0.4374309
170	0xbf241401	-0.64093024
171	0x3d66caac	0.056345627
172	0x3ee614f9	0.44937876
173	0x3dba8d92	0.09109034
174	0x3e3e546f	0.18586896
175	0xbd8df871	-0.06932152
176	0x3eb5c1e4	0.3549949
177	0x3e4d9a3d	0.20078368
178	0x3f2a8c7c	0.6662061
179	0x3d57c0d9	0.05267415
180	0x3f0e619c	0.5561769
181	0xbb418734	-0.002953005
182	0x3db83675	0.08994762
183	0xbef3ea84	-0.4763986
184	0xbf242145	-0.64113265
185	0x3dae3bd3	0.08507504
186	0xbe298de3	-0.16558032
187	0xbec018f4	-0.37519038
188	0x3ed98b2d	0.42488995
189	0x3d91cd7b	0.071192704
190	0x3f01e7ce	0.5074433
191	0xbd79318d	-0.06083827
192	0x3efab64f	0.48967215
193	0x3e220dfd	0.15825649
194	0x3efca48d	0.49344292
195	0xbedd8e47	-0.43272611
196	0x3d0b3eb7	0.033995356
197	0x3ee0903e	0.43860048
198	0xbc3e4009	-0.011611947
199	0x3eb855d0	0.3600297
200	0xbb61b3bc	-0.0034439405
201	0xbe9a20e7	-0.30103227
202	0xbcf64bd9	-0.030065464
203	0xbea3dc4d	-0.32004014
204	0xbf325915	-0.6966718
205	0xbf0ee9d8	-0.5582557
206	0xbe9fa8ef	-0.31183574
207	0x3dfb8058	0.12280339
208	0x3e8b8cf8	0.27255988
209	0x3f0fb4f7	0.56135505
210	0xbf26cdb9	-0.6515766
211	0xbe93251e	-0.28739256
212	0x3e02e3c2	0.12782195
213	0x3e18fc5a	0.14940014
214	0x3e683042	0.22674659
215	0xbdadee7e	-0.084927544
216	0xbf083498	-0.5320525
217	0xbe899bae	-0.26876587
218	0x3c08f32d	0.008358759
219	0x3e44b24c	0.1920864
220	0x3ebd909c	0.3702439
221	0xbea1ebdb	-0.31625256
222	0xbe5eab2a	-0.21744981
223	0xbed4cc89	-0.41562298
224	0xbdb05a8d	-0.08611021
225	0xbee2fafe	-0.44332117
226	0x3ce64775	0.028110245
227	0x3e7ebc3a	0.2487649
228	0x3eb713a8	0.35757184
229	0x3f4c8743	0.79893893
230	0x3e39a5fa	0.18129721
231	0x3e1d826d	0.15381785
232	0xbe541f88	-0.20715153
233	0xbe85f3c7	-0.2616255
234	0xbf08b5b5	-0.5340226
235	0x3edfcd52	0.43711334
236	0xbda5283d	-0.080643155
237	0xbe1d9804	-0.1539002
238	0x3e7db69b	0.2477669
239	0xbe811374	-0.25210154
240	0x3eb00a98	0.34383082
241	0xbe16be06	-0.14720926
242	0x3f200b53	0.6251728
243	0xbe05e105	-0.1307412
244	0xbf00a826	-0.50256574
245	0x3e8d3fb5	0.27587667
246	0xbcbcb2d0	-0.023034483
247	0xbeb39803	-0.35076913
248	0xbc708c7f	-0.014681934
249	0x3e4a353b	0.19746868
250	0xbf171ac9	-0.59025246
251	0xbf23f5dd	-0.6404703
252	0x3ea72f69	0.3265336
253	0x3f1b3b6a	0.60637534
254	0xbef0c158	-0.4702251
255	0x3e684235	0.22681506

25 f4 [512, 256]
0	0xbcd40b63	-0.025884336
1	0xbc9a8060	-0.018860042
2	0xbd0ffab6	-0.035151206
3	0xbe15d578	-0.14632213
4	0xbcb9cc9d	-0.022680575
5	0x3b8b9816	0.0042600734
6	0x3d30f2ce	0.043200307
7	0x3cf97f19	0.030456113
8	0x3dd3eac4	0.10347512
9	0xbdad0dcd	-0.08449898
10	0x3c389b28	0.011267461
11	0x3dceb440	0.10092974
12	0x3cccc081	0.024994137
13	0x3c1ffe2a	0.009765187
14	0xbd0631e4	-0.032762423
15	0x3d33fd34	0.043942645
16	0xbe05ec79	-0.13078488
17	0xbb97e6fc	-0.00463569
18	0xbbecee0b	-0.0072305254
19	0xbcb162b1	-0.021653505
20	0x3c97fbef	0.018552748
21	0xbd2b27a8	-0.041785866
22	0xbd8868ea	-0.06660636
23	0x3d074d16	0.0330325
24	0xbe3203bb	-0.17384236
25	0xbcf8d98a	-0.030377168
26	0x3d07a799	0.033118818
27	0xbd6a8c8f	-0.057262953
28	0xbce3f6d2	-0.027827654
29	0x3db07fc8	0.08618122
30	0x3d337566	0.04381313
31	0x3d8af8cb	0.06785735
32	0xbd4a84ea	-0.049443163
33	0xbd5e8a9a	-0.0543314
34	0x3ba5d8f1	0.005061262
35	0xbdd67c4d	-0.10472927
36	0x3dd46634	0.10371056
37	0x3dcf1730	0.101118445
38	0x3ddbd80c	0.10734567
39	0xbc78f71f	-0.015195637
40	0xbcc9c3aa	-0.024629433
41	0x3b1034ce	0.002200413
42	0x3d0dae6a	0.034590162
43	0x3bfefa6b	0.007781317
44	0xbd148dc1	-0.036268
45	0x3d6b444d	0.057438184
46	0xbd338a90	-0.043833315
47	0x3dd19b75	0.10234729
48	0xbdb65c32	-0.089043036
49	0xbc837237	-0.016045673
50	0x3d6ef2f1	0.058337156
51	0xbcc27836	-0.023738962
52	0x3d463b04	0.048396125
53	0x3c4b862b	0.012422125
54	0x3ac352bf	0.001490198
55	0x3e2a030c	0.16602725
56	0xbd8d86cd	-0.06910477
57	0x3e037fa7	0.12841664
58	0xbd24330e	-0.040087752
59	0xbd7bd718	-0.061484426
60	0xbc994cb2	-0.018713329
61	0x3e06cd9f	0.13164376
62	0x3e0c89bb	0.13724415
63	0xbd665ea1	-0.05624259
64	0x3d403836	0.046928607
65	0xbd960cb0	-0.07326639
66	0xbdb4eae4	-0.08833864
67	0xbd82e436	-0.06391184
68	0xbc370052	-0.01116951
69	0x3d83fb18	0.06444377
70	0x3d4a8446	0.049442552
71	0x3d681753	0.05666287
72	0xbd1380dd	-0.036011565
73	0xbd353e3f	-0.044248816
74	0x3dda58db	0.10661479
75	0xbd4faa91	-0.050699774
76	0x3db4307a	0.08798309
77	0x3e02181c	0.1270451
78	0x3c765548	0.015034981
79	0x3cc6a33b	0.024247756
80	0xbd42e475	-0.047581155
81	0xbcb4cbdd	-0.022069866
82	0x3db0a933	0.08626022
83	0x3da31442	0.07962848
84	0xbcdef04c	-0.027214192
85	0xbd3c5e56	-0.045988403
86	0x3df2d96a	0.11857875
87	0xbe1a8a8d	-0.15091915
88	0xbaa0ebc0	-0.001227729
89	0x3e154eaa	0.14580789
90	0x3d9c2b7a	0.0762548
91	0x3d6b02f2	0.057375856
92	0x3e1eed15	0.15520127
93	0xbc9f68b8	-0.019459113
94	0xbcb59b56	-0.022168797
95	0x3dc4210b	0.09576615
96	0xba4c54f4	-0.00077946414
97	0xbcb6eeda	-0.02233069
98	0x3dfbeac4	0.12300637
99	0x3cb23287	0.021752609
100	0xbc632ab5	-0.013865163
101	0x3d4be07e	0.04977464
102	0x3c964cf0	0.018347234
103	0xbd8a90c7	-0.06765895
104	0xbd662945	-0.0561917
105	0xbd48229f	-0.048861142
106	0x3dce04fa	0.10059543
107	0xbd47fcec	-0.04882519
108	0x3d3e6eaa	0.046492256
109	0x3cfc50be	0.03080022
110	0xbd8a63e0	-0.06757331
111	0x3d936847	0.07197624
112	0x3d90b987	0.070666365
113	0x3d978251	0.07397903
114	0xbdd81810	-0.105514646
115	0xbdaf87f9	-0.085708566
116	0x39f8d9e2	0.0004746458
117	0x3d7ba28f	0.061434325
118	0x3d852a60	0.06502223
119	0x3c9c4473	0.019075608
120	0x3dafc19f	0.08581852
121	0xbbcfab5e	-0.006337567
122	0xbdb868d5	-0.0900437
123	0xbc8bc3d2	-0.017061148
124	0x3c8d3827	0.01723869
125	0x3dd43c0b	0.10363015
126	0xbdbf9b6f	-0.093558185
127	0x3da94699	0.082654186
128	0xbdb085f4	-0.086192995
129	0x3d8e0cd4	0.069360405
130	0xbc5ae938	-0.013361268
131	0x3da1b927	0.07896643
132	0x3de5b9d8	0.112170875
133	0xbd0c7e42	-0.034300096
134	0xbd72cd03	-0.059277546
135	0x3da43381	0.08017636
136	0x3dd6de02	0.104915634
137	0xbc725c81	-0.014792562
138	0x3c9e26b4	0.019305564
139	0xbd2cd881	-0.04219866
140	0x3d536c09	0.051616702
141	0x3cc366fd	0.02385282
142	0xbdcb66b9	-0.09931702
143	0x3d4c6f83	0.049911033
144	0x3d2c0fc4	0.042007223
145	0x3c6fb6ef	0.014631017
146	0xbbb3f2d7	-0.0054915952
147	0x3d0d89ab	0.03455512
148	0xbcaae13d	-0.020859355
149	0x3c93fbdb	0.01806443
150	0x3d8b253e	0.06794213
151	0x3e157b09	0.14597715
152	0x3dae7cec	0.08519921
153	0x3d124d1b	0.035718065
154	0x3db004b5	0.08594648
155	0x3d8d3603	0.068950675
156	0x3db1023c	0.08643004
157	0xbcf9e3bf	-0.030504106
158	0xbd35e3b0	-0.044406593
159	0x3e1d60d1	0.15368964
160	0xbd2c820c	-0.04211621
161	0x3de520f1	0.11187924
162	0xbdf464a1	-0.11933256
163	0xbd57695f	-0.052590724
164	0xbca99943	-0.020702964
165	0xbd39c1ec	-0.045350954
166	0x3dba18b1	0.09086741
167	0xbc94d36a	-0.018167216
168	0x3d5f4f32	0.054518886
169	0x3dc85936	0.09782641
170	0xb8e529f3	-0.000109273846
171	0x3d8216ec	0.06352028
172	0xbdf785bf	-0.12086057
173	0x3e360557	0.17775474
174	0xbd5d679e	-0.054053895
175	0xbc56596a	-0.013082841
176	0x3cc5db37	0.024152381
177	0xbd4bdb35	-0.0497696
178	0xbd93edfe	-0.07223128
179	0x3aa39135	0.0012479188
180	0x3dc51787	0.09623628
181	0x3b2b3c9b	0.0026128653
182	0xbd75efc6	-0.06004312
183	0x3df01ee0	0.11724639
184	0xbd69145d	-0.056904186
185	0xbd25c012	-0.040466376
186	0xbaef5b0b	-0.0018261386
187	0x3da548ec	0.08070549
188	0x3dbb2103	0.09137156
189	0xbdd298bb	-0.10283037
190	0x3d93b4ef	0.07212245
191	0xbc8c45d0	-0.017123133
192	0x3e163c8e	0.14671537
193	0x3c98f889	0.018673198
194	0x3e433c9e	0.19066092
195	0x3dfe97c0	0.12431288
196	0x3e0a7139	0.13519754
197	0x3ce49e9f	0.027907668
198	0xbdb8afa3	-0.09017875
199	0xbb65e40d	-0.0035078556
200	0xbcd6c2ba	-0.0262159
201	0xbbe10839	-0.0068674353
202	0xbac184b1	-0.0014764277
203	0x3ce79274	0.028268076
204	0xbcd614e3	-0.026133006
205	0x3e030294	0.12793952
206	0xbdbe0902	-0.09279062
207	0x3d809e20	0.0628016
208	0x3c8e5fe7	0.017379714
209	0xbe156a56	-0.14591345
210	0xbdcdd21e	-0.10049842
211	0xbd9d9408	-0.0769425
212	0x3d7f7ce1	0.062374953
213	0x3d10bf41	0.035338644
214	0x3d05f973	0.032708596
215	0xbdb9f290	-0.09079468
216	0x3dad18ab	0.08451971
217	0xbd1c515d	-0.03816353
218	0x3b19869f	0.0023426188
219	0x3daa50ed	0.083162166
220	0xbdde4478	-0.10852903
221	0x3baf59c0	0.005351275
222	0xbcdd57a7	-0.027019335
223	0x3ba17e3f	0.00492838
224	0x3d2d804c	0.04235868
225	0xbd0332b0	-0.03203076
226	0x3b79363e	0.0038026716
227	0x3dad6ab8	0.084676206
228	0x3d1c905b	0.038223606
229	0x3dd87a6b	0.105702244
230	0xbdf235a5	-0.11826638
231	0xbd4ecd49	-0.050488744
232	0xbe56cb3a	-0.20975962
233	0xbd1a4a2a	-0.037668385
234	0x3d5c016d	0.053712297
235	0x3ba0d41a	0.004908097
236	0xbe04fa31	-0.12986065
237	0x3e28d89a	0.16488877
238	0xbdab9ce9	-0.083795376
239	0xb88d02e2	-6.723941e-05
240	0xbdc1e650	-0.09467757
241	0x3d22837f	0.039676186
242	0x3d48f1ea	0.049058832
243	0x3da7145c	0.0815818
244	0x3c8e894e	0.017399456
245	0x3bf5ca9d	0.00750096
246	0x3ceca810	0.028888732
247	0x3d8ed8ed	0.06974969
248	0xbad67781	-0.0016362519
249	0x3df61035	0.1201481
250	0xbd6c20c0	-0.05764842
251	0x3db4e6ab	0.08833059
252	0xbcd44a2e	-0.025914278
253	0x3bad20fd	0.0052834735
254	0xbd1fb04d	-0.038986493
255	0xbd27d2e7	-0.040972617

26 f4 [256, 128]
0	0xbd67ecd0	-0.056622326
1	0x3b36e371	0.0027906562
2	0xbc230e51	-0.009952144
3	0x3d882ccf	0.066491716
4	0xbba4f4c6	-0.005034062
5	0xbc4ac59b	-0.012376214
6	0xbcd450e3	-0.025917476
7	0xbd07eaa3	-0.03318275
8	0xbd84853b	-0.06470724
9	0xbca1a106	-0.019730102
10	0x3cfc4c48	0.030798092
11	0xbdffa5a7	-0.124827676
12	0x3ce51aa9	0.027966814
13	0x3d44d314	0.048052862
14	0x3c2ec79d	0.010667709
15	0x3cca2c5e	0.024679359
16	0x3d96e8fc	0.07368657
17	0x3c8a9790	0.016917974
18	0xbd07f3bd	-0.03319143
19	0xbc88ede6	-0.016715001
20	0xbbe8c8ad	-0.0071040005
21	0x3c45e64e	0.012078835
22	0x3dd8bc5f	0.10582804
23	0x3de23e3b	0.11047026
24	0x3d34c8ab	0.044136684
25	0x3c976267	0.01847954
26	0x3ccd813a	0.025086034
27	0xbc56d05b	-0.013111199
28	0x3cb49078	0.022041544
29	0x3d0c6499	0.034275625
30	0xbd034bc8	-0.032054693
31	0xbc5570ca	-0.013027379
32	0x3d1717d3	0.036887955
33	0xbcd1c062	-0.02560443
34	0x3bd30fe1	0.006441102
35	0x3cd2f9e5	0.025753925
36	0xbd827dde	-0.063716635
37	0xbb98e072	-0.004665428
38	0xbd751d0b	-0.05984215
39	0xbc777bda	-0.015105212
40	0xbd42a4eb	-0.04752056
41	0x3c7c0722	0.01538256
42	0xbc2fab09	-0.01072193
43	0x3c9601c5	0.01831139
44	0x3d286ff3	0.041122388
45	0x3d8b2a9b	0.06795236
46	0xbb5a6b40	-0.0033328086
47	0xbcef4b6f	-0.029210774
48	0xbcd47e4c	-0.02593913
49	0xbbbb7325	-0.0057205134
50	0xbbdb6e97	-0.006696533
51	0xbcb8607f	-0.02250695
52	0xbd2e0499	-0.042484853
53	0x3c74fd61	0.014952988
54	0xbc240b37	-0.010012439
55	0xbd6445e5	-0.05573072
56	0x3d19d043	0.03755213
57	0x3cec043d	0.028810615
58	0xbd120be1	-0.03565586
59	0x3c435fbd	0.011924681
60	0xbd2f99cf	-0.042871293
61	0xbd3ebac9	-0.04656485
62	0x3d290ba9	0.041270886
63	0xbce20206	-0.027588855
64	0xbd2ab9e3	-0.04168118
65	0x3d0eba13	0.034845423
66	0x3c8cfc5b	0.017210176
67	0x3d4610ca	0.048355855
68	0x3db735b1	0.08945788
69	0xbd9b1ae8	-0.07573491
70	0x3d46c2ca	0.04852561
71	0x3d089ea5	0.03335442
72	0x3cafa609	0.021441476
73	0xbc0d49ed	-0.008623582
74	0x3a8a3f64	0.0010547456
75	0x3c907e0c	0.017638229
76	0x3cb140c8	0.021637335
77	0xbcdf9504	-0.027292736
78	0x3d011f58	0.031524032
79	0x3d7f183e	0.06227898
80	0xbd0ab5f2	-0.033864923
81	0x3ceba733	0.02876625
82	0xbcf66aed	-0.030080283
83	0xbdafb90e	-0.08580218
84	0x3ccebbf8	0.025236115
85	0xbd0178be	-0.03160929
86	0xbc9e95b8	-0.0193585
87	0xbc35351a	-0.011060024
88	0xbd2c655b	-0.042088848
89	0xbcd3cfea	-0.025855977
90	0xbce550ce	-0.027992632
91	0x3cb9f639	0.022700416
92	0x3c32fca5	0.010924493
93	0x3c6cc2cc	0.01445074
94	0x3db8307e	0.08993624
95	0xbcbe36b6	-0.023219448
96	0xbd910df2	-0.07082738
97	0x3d089065	0.03334083
98	0x3c211360	0.0098312795
99	0xbc85419e	-0.01626664
100	0x3d1021ee	0.035188608
101	0x3d85098f	0.06495964
102	0xbcdcc8ef	-0.026951281
103	0x3c113a52	0.008864002
104	0x3d79a2aa	0.060946144
105	0xbc610fc0	-0.013736665
106	0x3d526fe7	0.05137625
107	0x3d01588a	0.031578578
108	0xbded3f9d	-0.11584399
109	0x3cdfa6bf	0.02730119
110	0xbcf4b365	-0.029870698
111	0xbd22c18c	-0.039735362
112	0xbdb5187a	-0.08842559
113	0x3cde4647	0.02713312
114	0x3d6f218b	0.0583816
115	0x3d1387d7	0.03601822
116	0xbc858502	-0.016298775
117	0x3b47900e	0.0030450854
118	0xbbe00b89	-0.0068373126
119	0x3a3f1b7f	0.0007290169
120	0xbd46970b	-0.04848389
121	0x3ccf6b0f	0.025319604
122	0xbd3110d3	-0.043228935
123	0xbd372bc9	-0.04471949
124	0xbcc2b285	-0.023766765
125	0xba26911c	-0.00063540204
126	0xbca8325b	-0.020531824
127	0xbd22bd07	-0.03973105
128	0x3ccb0013	0.024780309
129	0xbd6e81a6	-0.05822911
130	0x3c49b0ff	0.012310266
131	0x3d56927b	0.05238579
132	0xbc1f467e	-0.0097213965
133	0xbce93cfd	-0.028471464
134	0xbd82eb3d	-0.063925244
135	0x3d1d9c39	0.038479064
136	0x3d5581b7	0.05212566
137	0x3be269e9	0.006909598
138	0xbd0381be	-0.032106154
139	0xbcf179cb	-0.02947702
140	0x3d010cea	0.031506456
141	0x3d6d70ac	0.05796878
142	0x3bd6da83	0.0065568103
143	0x3d0a10ed	0.033707548
144	0x3d169957	0.03676733
145	0x3d72f635	0.059316833
146	0x3b9350d5	0.00449572
147	0x3d361c5a	0.044460632
148	0x3d836cdf	0.0641725
149	0x3a38762d	0.00070366525
150	0x3d574028	0.05255142
151	0x3bc7c2ef	0.006096236
152	0x3dbb822f	0.0915569
153	0x3d82097f	0.063494675
154	0x3d0e6ce2	0.034771807
155	0x3c71f2ad	0.014767331
156	0xbc368d02	-0.011142017
157	0x3b948983	0.0045329942
158	0xbd87ec42	-0.066368595
159	0x3da6278f	0.08113014
160	0xbb91ed21	-0.004453317
161	0xbb2654f6	-0.002538023
162	0xbd7523ed	-0.059848715
163	0xbd5ec9ac	-0.054391548
164	0x3cca308f	0.024681358
165	0x3da84abf	0.08217382
166	0x3d35e8a9	0.044411335
167	0x3d8cf187	0.06882005
168	0xbd60b567	-0.0548605
169	0xbcba3f67	-0.02273531
170	0xbd8eccbf	-0.06972646
171	0x3cf53ae9	0.029935317
172	0x3d5f3470	0.054493368
173	0xbd99ba44	-0.075062305
174	0xbd426513	-0.047459673
175	0x3d108a2c	0.03528802
176	0x3d3dcba8	0.0463368
177	0xbdb06a3f	-0.08614015
178	0x3db64bf8	0.08901209
179	0x3cd33a0c	0.025784515
180	0x3c01b4bd	0.0079166265
181	0x3ba04bfc	0.0048918705
182	0xbbd3ad49	-0.006459866
183	0xbd130dc2	-0.035901792
184	0xbd73a959	-0.059487674
185	0x3c2bc96c	0.010485034
186	0x3d894a31	0.06703604
187	0x3c10571c	0.008809831
188	0xbcfeab69	-0.031087594
189	0xbc2f1a29	-0.010687389
190	0x3d066419	0.032810304
191	0x3d03dd32	0.03219337
192	0xba9014a9	-0.0010992485
193	0x3d990f6d	0.07473645
194	0xbd533733	-0.051566314
195	0x3c89ef0b	0.016837617
196	0x3d1d5994	0.038415506
197	0x3d47e89d	0.04880582
198	0xbac76c06	-0.0015214689
199	0x3dac680c	0.08418283
200	0xbc7394f5	-0.014867057
201	0x3deb220c	0.11481103
202	0x3d10e63f	0.03537583
203	0x3be39b1c	0.0069459807
204	0xbcb80fc3	-0.022468453
205	0x3c8a60da	0.016891886
206	0x3db459f3	0.08806219
207	0x3e1952ca	0.14972988
208	0xbba69576	-0.005083735
209	0xbc81548d	-0.015787387
210	0xbbf55746	-0.0074872104
211	0x3c3bc84b	0.011461328
212	0x3cf7f05e	0.030265983
213	0x3d85669e	0.06513713
214	0x3d228e6c	0.039686605
215	0xbc6c35d5	-0.014417131
216	0xbcedd37e	-0.029031511
217	0xbd00c947	-0.031441953
218	0xbd42d9ae	-0.047570877
219	0xbd6afeb7	-0.05737182
220	0xbcdf5139	-0.02726041
221	0x3c516048	0.012779303
222	0x3c954b97	0.01822452
223	0x3c5e5d1b	0.013572003
224	0x3e09b706	0.13448724
225	0x3b446daf	0.0029972603
226	0x3d30366f	0.043020662
227	0xbd2d4533	-0.04230232
228	0xbb272425	-0.0025503722
229	0xbcdcd449	-0.026956694
230	0x3dea0b30	0.11427915
231	0x3d96ca87	0.07362848
232	0x3ce82cbc	0.028341644
233	0xbcbc3352	-0.02297369
234	0x39abf947	0.00032801388
235	0xbc21fbf3	-0.0098867295
236	0xbdce352a	-0.10068734
237	0x3c64e2ee	0.01397012
238	0xbcaafb07	-0.020871652
239	0x3b62a3e3	0.0034582547
240	0xbc544a37	-0.012957147
241	0x3d36de97	0.044645872
242	0xbd0cc2f6	-0.034365617
243	0x3cb746dd	0.022372657
244	0x3cffae7a	0.031211127
245	0x3d6ffc84	0.058590427
246	0xbc9149a4	-0.01773531
247	0x3cac88b8	0.021061286
248	0xbcb2db4d	-0.021833086
249	0xbc7f2b7f	-0.015574335
250	0xbb8d5a31	-0.00431373
251	0x3c1e9219	0.009678387
252	0x3d00cd47	0.031445768
253	0xbcd3a2d9	-0.025834488
254	0xbcf97725	-0.03045232
255	0x3c9bcfed	0.019020045

27 f4 [128, 6]
0	0xbc1e083a	-0.009645516
1	0x3b6015fe	0.0034192796
2	0xb98c1792	-0.00026720442
3	0xb991ed95	-0.00027833568
4	0xb9b39b14	-0.00034257083
5	0xbcf7e305	-0.030259619
6	0xbce6c1a8	-0.028168514
7	0xbd882f51	-0.0664965
8	0x3d2026e6	0.039099596
9	0x3d74cdee	0.059766702
10	0x3d44955f	0.047994014
11	0x3c0ebe9f	0.00871244
12	0x3bac41a9	0.0052568507
13	0xbbece767	-0.0072297337
14	0x3c35b225	0.011089836
15	0x3ca7cb14	0.020482577
16	0xbc1176e8	-0.008878447
17	0xbd8ac805	-0.06776432
18	0xbd0a84b5	-0.033817966
19	0xba6a048c	-0.0008927069
20	0xbce6b1c8	-0.028160945
21	0xbd4f34da	-0.050587513
22	0x3c90e4d9	0.017687248
23	0xbc941e12	-0.018080745
24	0xbae2477c	-0.0017263736
25	0xba9d35fc	-0.0011994238
26	0x39af0bd6	0.0003338742
27	0xbbb01a86	-0.0053742556
28	0xbb188065	-0.0023269888
29	0xbce5fc08	-0.02807428
30	0xbbdc053f	-0.0067144926
31	0x3b172628	0.0023063514
32	0xbb9d6025	-0.004802721
33	0xbc4cfb86	-0.01251114
34	0xbc9dda46	-0.01926912
35	0xbd526b94	-0.051372126
36	0x3d0dbd4f	0.034604367
37	0xbd59b15b	-0.053147655
38	0x3d1b0cfd	0.037854183
39	0x3cfadbc8	0.030622378
40	0xbcb1b94c	-0.021694802
41	0x3e07f63d	0.13277526
42	0xb9dd05e3	-0.0004215679
43	0x3bb0fa14	0.0054009054
44	0xbb728952	-0.0037008119
45	0xbb1ed770	-0.0024237297
46	0xba9c01cd	-0.0011902392
47	0xbd1cfb5a	-0.038325645
48	0xba98a094	-0.0011644536
49	0x3a0570da	0.00050903636
50	0x3b3fa7fd	0.0029244416
51	0xbc1d3451	-0.009594993
52	0xbc23e590	-0.010003462
53	0x3b5769ca	0.0032869452
54	0x3c685b24	0.014181886
55	0x3b6614a6	0.0035107522
56	0xbb45063b	-0.0030063528
57	0xbbc9e052	-0.0061607743
58	0xbb8305e1	-0.0039985036
59	0x3bd0ce98	0.006372284
60	0x38c9ef49	9.628997e-05
61	0x3ac578b7	0.0015065883
62	0xbbcb0a10	-0.006196268
63	0xbc35bece	-0.011092855
64	0x3b405a37	0.0029350647
65	0x3d00512f	0.031327423
66	0x3cbb3ff3	0.022857642
67	0x3c3d8830	0.011568114
68	0xbbfc24ad	-0.007694802
69	0xbd8a7d7d	-0.06762216
70	0xbc0210cc	-0.007938575
71	0xbd1a309b	-0.03764401
72	0x3b926949	0.0044681174
73	0x39c17c47	0.00036904422
74	0xbbb514a6	-0.005526143
75	0xbc61e306	-0.013787037
76	0x3bc6e667	0.0060699466
77	0xbd320a11	-0.04346663
78	0x3b67a8b9	0.003534837
79	0x3b424cc5	0.002964781
80	0x3b0bac36	0.0021312363
81	0xbbb579b8	-0.0055381916
82	0xbc01865a	-0.007905567
83	0x3c9a8975	0.018864373
84	0x3b3906d4	0.002823283
85	0x39e40154	0.00043488538
86	0xbb211c82	-0.0024583642
87	0xbbde48ed	-0.006783596
88	0xb93f5d2d	-0.0001824989
89	0xbb5fcd6b	-0.0034149538
90	0x3d062cdc	0.032757625
91	0x3c5290ff	0.012851953
92	0xbc175fa9	-0.009239116
93	0xbbd734e2	-0.0065675834
94	0xbc68da8b	-0.014212261
95	0xbcd2f9e7	-0.025753928
96	0xbbde50a0	-0.0067845136
97	0x3b658469	0.003502155
98	0x3c001a38	0.007818751
99	0xbb0f2830	-0.0021844022
100	0xbbb8e333	-0.0056423186
101	0x3cf33cf4	0.02969215
102	0x3c1ce228	0.009575404
103	0xbbbec0c2	-0.0058213184
104	0xbd8eacc3	-0.069665454
105	0x3d24d688	0.040243655
106	0x3db16502	0.08661844
107	0xbe0eea62	-0.13956597
108	0xbd570c3c	-0.052501902
109	0xbc62ca45	-0.01384217
110	0x3d6ce68b	0.05783705
111	0xbd199490	-0.037495196
112	0x3e1a6d3c	0.15080732
113	0xbd2768e3	-0.040871512
114	0x398bfd4a	0.0002670086
115	0xbba80761	-0.0051278328
116	0xb8df7e9b	-0.00010657051
117	0x3ba1a535	0.0049330243
118	0x3bc05537	0.0058695334
119	0xbbb49caa	-0.00551184
120	0xbbf4c10d	-0.0074693025
121	0x3a90832d	0.0011025422
122	0x3afd91ed	0.0019345857
123	0xbca77134	-0.020439722
124	0x3baccd06	0.005273464
125	0x3b8e37a6	0.00434013
126	0x3aa885c5	0.0012857249
127	0x3ab6b438	0.0013939207
128	0xbb6dfdf9	-0.003631471
129	0xbc29d347	-0.010365314
130	0x3bf591f8	0.0074942075
131	0xbc9f9fe2	-0.019485418
132	0x3c405a02	0.01174021
133	0x3b8282d3	0.0039828806
134	0xbbafa23c	-0.005359916
135	0xbb190c99	-0.0023353456
136	0xbb0a819e	-0.0021134387
137	0xbd83f17f	-0.06442546
138	0xbc2c2ca8	-0.010508694
139	0x3caf5274	0.021401621
140	0xbc2d7f44	-0.0105894245
141	0x3d5b4e4c	0.053541467
142	0x3cc9ce68	0.024634555
143	0x3d1de87e	0.0385518
144	0xbd1cfef5	-0.038329083
145	0x3ded4450	0.11585295
146	0xbd90978f	-0.070601575
147	0xbd80dfb0	-0.06292665
148	0x3da91467	0.082558446
149	0xbd0503da	-0.032474376
150	0xbcbec416	-0.02328686
151	0xbc863eec	-0.016387425
152	0xba872d07	-0.0010313102
153	0xbc15e1e9	-0.009148099
154	0xbbff73b4	-0.0077957753
155	0xbd92e748	-0.0717302
156	0x3bd3eba2	0.0064672986
157	0x3c90d152	0.017677937
158	0xbc509c57	-0.012732587
159	0x3bf444c4	0.0074544866
160	0xba4120db	-0.00073672616
161	0xbdce8567	-0.10084038
162	0xb9a776b0	-0.0003194115
163	0x3b83934e	0.004015363
164	0x38a00f32	7.632225e-05
165	0xbbed7c6f	-0.0072474997
166	0xbc7a8141	-0.015289606
167	0xbcc97f18	-0.024596736
168	0x3cc54788	0.02408196
169	0xb6c45679	-5.851322e-06
170	0xbcda9935	-0.026684383
171	0xbcfc5c1b	-0.030805638
172	0xbc24a3d0	-0.010048822
173	0xbd160b9d	-0.03663217
174	0xbb431125	-0.0029764858
175	0x3b8fa689	0.004383866
176	0x3b92ad4d	0.0044762255
177	0x3c835802	0.016033176
178	0x3c28863d	0.010285911
179	0xbc2fecdb	-0.010737623
180	0xbbad9ca8	-0.005298216
181	0x3b960fd9	0.004579526
182	0x399c1e24	0.00029777095
183	0xbbcac79a	-0.006188345
184	0x3a1e392b	0.00060357404
185	0xbbed8f3b	-0.0072497404
186	0x3cff3b53	0.031156218
187	0xba7e70cd	-0.00097061397
188	0xbcae6e12	-0.02129272
189	0xbcbd9742	-0.023143414
190	0x3c69ddea	0.0142741
191	0xbd1d8aa8	-0.03846231
192	0x3be02f12	0.0068415487
193	0x3b48bb92	0.0030629379
194	0xb978a79e	-0.00023713565
195	0xbba02c69	-0.0048881066
196	0xbabe390e	-0.0014512853
197	0xbceb3689	-0.028712528
198	0x3c0304c4	0.007996742
199	0x3ad0b056	0.0015921693
200	0xbbd4a120	-0.006488934
201	0xbc60f620	-0.013730556
202	0xbc8ef0a0	-0.017448723
203	0xbc39887b	-0.011324043
204	0x3b39c912	0.0028348607
205	0xbcce6d90	-0.025198728
206	0xbc93ae76	-0.018027525
207	0xbcc05e30	-0.023482412
208	0x3b5adcf1	0.0033395851
209	0xbcb1d1ad	-0.021706427
210	0xba0e2159	-0.00054218393
211	0x3a92446d	0.0011159308
212	0x3a6a4fae	0.0008938265
213	0xbb5ae03a	-0.003339781
214	0x3b7ba6ec	0.0038399054
215	0x3b5db7e6	0.0033831536
216	0x3b96b132	0.00459876
217	0xbac53edc	-0.0015048641
218	0xbc74e3a6	-0.014946854
219	0xbcdf7704	-0.02727843
220	0x3c6a792b	0.014311115
221	0xbd6470e8	-0.05577174
222	0xbcd38030	-0.02581796
223	0xbca6d2b6	-0.020364147
224	0x3d62b261	0.055345897
225	0xbcb48c05	-0.022039423
226	0xbbe00ecf	-0.006837703
227	0xbd7a832e	-0.06116026
228	0xbc09d807	-0.008413321
229	0xbbe57b9c	-0.007003261
230	0xbc1fd778	-0.009755962
231	0x3bf850e0	0.0075780004
232	0xbca5ccbe	-0.02023923
233	0x3c47a8e4	0.012186263
234	0xbe3cb219	-0.18427314
235	0x3d194077	0.037414994
236	0x3d8721b0	0.06598222
237	0x3e253f0a	0.16137329
238	0xbcbdcbba	-0.023168433
239	0xbdbbdedc	-0.091733664
240	0xbb91201d	-0.004428877
241	0x3b3d2611	0.00288618
242	0xb82e9587	-4.162409e-05
243	0xbc70fbd7	-0.014708481
244	0xbab4b58b	-0.0013787014
245	0xbc14e355	-0.009087403
246	0xbb57ce21	-0.003292926
247	0x3b2aaeb3	0.002604407
248	0xbb6090a0	-0.003426589
249	0xbb77fea6	-0.0037840991
250	0xbb502d55	-0.0031765301
251	0x3ae564be	0.0017501337
252	0xbd098fba	-0.033584334
253	0x3b1d2291	0.0023976902
254	0x3bb3cf2c	0.0054873433
255	0x3d71cfee	0.059036188
