logs/rough_wla/exported/policies/policy_1.pt (torch, 715669 bytes, 8 tensors)

weight f4 [512, 21]
000000 8e cc 9e 3e 70 2d 46 bf f9 97 e9 bd c4 06 f6 3e
       0.31015438 -0.7741308 -0.114059396 0.48052037
000010 db 83 19 be f4 bb d8 3d 62 bd 24 be 2d 03 96 3d
       -0.14991705 0.10582724 -0.16087869 0.073248245
000020 5b 0a 35 3e a1 4c 97 3f d1 3e e1 3e bd 63 a7 3d
       0.17679732 1.182026 0.43993238 0.081733204
000030 4f 51 5b 3d 14 0d 92 bd 20 ac 42 3c 2e 33 10 bb
       0.05354434 -0.07131401 0.011881858 -0.0022003162
000040 0d d4 23 3c 8f 60 4f 3c e2 51 e1 3c 29 d2 2b 3a
       0.009999287 0.012657299 0.027504865 0.00065544486
000050 38 85 9a bc 49 0e c7 bd 91 b6 83 3e fd a6 b5 3d
       -0.018862352 -0.097195216 0.25725225 0.08869741
000060 de 9d b3 be df 6f 7e bb 58 e6 c7 3e e4 01 e8 3d
       -0.3508138 -0.0038824005 0.39042926 0.113284856
000070 ae cd 42 be cd 05 16 3e 50 bd e5 be de 3c c8 3d
       -0.19023773 0.1465065 -0.44870996 0.097772345
000080 22 dc aa 3e 97 c6 cf be b0 34 6e be eb 46 9e 3d
       0.33371073 -0.405812 -0.23262286 0.0772837
000090 4a e6 98 bc d9 47 1c bd 80 a9 8a bd 4a 7e d2 bc
       -0.018664498 -0.038154457 -0.06770611 -0.025694985
0000a0 47 5b 9b 3c 1f 5d a7 bc 29 60 d7 3e 55 73 1f be
       0.018964423 -0.020430146 0.42065552 -0.1557134
0000b0 b4 8d a4 be 6e 51 a7 3e 3c c3 1e be fd 1e f6 3c
       -0.3213936 0.32679313 -0.15504164 0.030044073
0000c0 6c 1b 21 be 68 f0 18 bd 20 04 57 be 23 d5 a6 3e
       -0.15733117 -0.037338644 -0.20997667 0.32584485
0000d0 47 d3 b5 3e 17 29 af be c5 f6 d8 3e cb 2a 05 3e
       0.35512754 -0.34211037 0.4237577 0.13004605
0000e0 07 6b 67 3d 9b 62 98 3a 01 e9 1c bc f0 46 c0 3c
       0.056498554 0.0011626066 -0.009577037 0.023471326
0000f0 6d 01 07 3d 40 70 91 3c d9 a1 c6 3c 35 4e 22 3f
       0.032960344 0.01775372 0.024247097 0.63400584
000100 7a c5 a5 bb 9f c4 8e be 8e 5c 8d 3c 0e 4e e8 3d
       -0.0050589414 -0.27884385 0.017256048 0.11343013
000110 07 42 d7 be 86 86 be bd 65 ff ec 3d bb 3b b1 bd
       -0.42042562 -0.09303002 0.1157215 -0.08653971
000120 89 06 0e bf dd 70 69 3f 1a 55 da be ed bc 88 3e
       -0.5547872 0.9118784 -0.42643052 0.2670664
000130 c3 22 92 bd 55 17 1b ba db fb db 3b 07 4f ec 3c
       -0.071355365 -0.00059162575 0.006713373 0.028846277
000140 3d 48 78 3c a8 3b 86 3c 67 57 93 bb f0 fb 3f 3c
       0.015153942 0.016385868 -0.004496503 0.011717781
000150 81 1d f3 3d 62 15 73 bf 72 cc ef be bc b5 b3 3e
       0.11870862 -0.949545 -0.46835667 0.3509959
000160 e1 dc 1d 3e 62 ac 07 3e f0 8d 43 3d ed 76 ab be
       0.1541629 0.13249353 0.047742784 -0.3348917
000170 21 3c ec 3d d5 b5 53 3f bb f5 66 3e 23 d9 85 be
       0.11534906 0.8269933 0.22554676 -0.26142225
000180 f2 cf c1 bc 63 fd c0 3d 97 4a 0a bd b5 29 24 bc
       -0.023658726 0.0942333 -0.03376254 -0.010019709
000190 8f 22 32 3d da 97 eb bc 10 83 8b 3c 7c fa 80 3d
       0.04348999 -0.028758932 0.017030269 0.06297776
0001a0 d2 e7 ba bc ed 0a 67 be 35 b9 72 3e aa 8a e7 3d
       -0.022815619 -0.22562762 0.23703463 0.11305745
0001b0 d2 87 15 be 43 23 1f 3c ff 31 d5 3d d7 c3 0d 3e
       -0.14602593 0.009712997 0.104099266 0.13844238
0001c0 00 63 23 3e b5 79 31 be 2f e9 67 bf b2 2e 25 3f
       0.15955734 -0.17331584 -0.90590185 0.64524376
0001d0 e7 87 b3 3e 42 68 cc 3e 50 b4 93 be 40 48 d1 bd
       0.35064623 0.39923292 -0.28848505 -0.10218859
0001e0 e7 b0 02 bd 36 c0 01 3c 67 43 89 bc 9d d8 05 bd
       -0.03190699 0.007919362 -0.016755773 -0.03267728
0001f0 ff 99 ac ba 0d a6 e3 3c 9d a9 b3 be 77 5e 7c 3e
       -0.0013168453 0.02778914 -0.35090342 0.2464541
000200 04 02 87 3e d4 18 44 bd e8 00 62 be 18 b8 3a bd
       0.26368725 -0.04787524 -0.22070658 -0.04558572
000210 27 d1 50 3e ed 7f fa 3e cd 7c 92 3e 8f 47 66 3f
       0.20392285 0.48925725 0.2861084 0.8995294
000220 45 15 0c be 2d c6 e1 3c 29 ba bd bd 59 fe 4f be
       -0.13679989 0.027560318 -0.09264023 -0.2031187
000230 4e 4f 7c 3d a3 3d a1 3c b0 e1 87 bc e1 c3 5f 3c
       0.06159907 0.019682711 -0.016587108 0.013657541
000240 61 d4 95 39 e8 87 62 bd b7 dd ae 3b b8 c6 1d be
       0.0002857773 -0.05530539 0.005336489 -0.15407836
000250 47 0c 44 3f 98 f1 dd 3d 50 74 08 bf d5 3a a6 3e
       0.76581234 0.10837096 -0.5330248 0.3246676
000260 c0 be 02 be 50 6d 81 3e 49 13 99 be 5e 66 91 be
       -0.12768078 0.2527871 -0.29897526 -0.28398412
000270 2c 0f 84 bf 00 e7 b1 be 70 78 32 3f b8 f7 39 3c
       -1.031713 -0.34746552 0.69715023 0.011350565
000280 1b 5b a4 be 0f 79 4a bc e2 9e 0e 3c d0 69 6f bd
       -0.32100758 -0.012357964 0.008704873 -0.05845052
000290 c0 1a e1 bc 1d 66 18 bd b8 5f 99 3c c7 5e 20 3d
       -0.027478576 -0.037206758 0.0187224 0.039152887
0002a0 c1 8d a0 bd ab 6e af be 89 4a c4 bb 85 f0 98 3e
       -0.078395374 -0.3426412 -0.0059903306 0.29871002
0002b0 40 8b cc 3d b4 22 22 3e c0 50 7a bd af 10 96 3e
       0.09987497 0.1583355 -0.061112165 0.29309604
0002c0 5c 8d 15 3e 7e 1b 98 3f c4 a8 1d 3f a4 b1 7e 3e
       0.14604706 1.188339 0.6158564 0.24872452
0002d0 da b7 63 3d 62 a6 b3 3e 1d 78 31 be bb cf 9a bc
       0.055595256 0.35087878 -0.17330976 -0.018897882
0002e0 d1 4c 07 3c 8e 73 35 bb 62 68 10 3c 00 e0 d4 bc
       0.008258061 -0.0027687284 0.008813949 -0.025985718
0002f0 dd db e4 bc 36 b2 f8 be 3f ab 5e 3f c8 81 18 3d
       -0.02793687 -0.48573464 0.8698005 0.037233144
000300 b7 ca 0f bf 86 c8 e3 bd bc 12 2d 3e 13 ef 6d be
       -0.56168693 -0.11122231 0.16901678 -0.23235731
000310 b1 1d fb 3d 7e ce 71 3d 96 19 38 bf 73 b2 83 bf
       0.122615226 0.059034817 -0.7191404 -1.0288833
000320 d5 e5 15 3e 98 dc 87 be 62 ad 71 3c cc 8e 0a bd
       0.14638455 -0.26535487 0.01475081 -0.033827588
000330 5b 01 9e 3c c1 5b 64 3b c2 94 1f 3b cd c7 06 3d
       0.019287756 0.0034844729 0.0024350141 0.03290539
000340 c2 69 8c bc 48 fd 68 bc 33 bb 77 bb 91 89 10 3f
       -0.017140273 -0.014220543 -0.0037800788 0.5645991
000350 95 3b d2 be 07 7f 03 3d b4 75 99 3e e8 7e 62 3e
       -0.41061082 0.032103565 0.29972613 0.22118723
000360 72 8e 91 bd ea 5b 98 be d9 ba 35 bb e7 80 06 3f
       -0.071072474 -0.29757625 -0.0027729778 0.5254044
000370 56 f5 a0 be 8a ec 92 3e ed d2 11 be d2 87 b6 bd
       -0.31437176 0.2869609 -0.14240618 -0.089126244
000380 91 ab 80 3c 39 9a ed bb d7 18 05 bd 09 71 ee bc
       0.01570681 -0.007251051 -0.032494392 -0.029106634
000390 64 6c 98 3b a1 e4 44 3d 0a e3 fa 3b 0b 85 00 bf
       0.004651593 0.0480696 0.0076564597 -0.5020301
0003a0 c5 9e 8f 3f 7b db 20 be 76 e4 df be 62 ef 7a 3c
       1.1220328 -0.15708725 -0.4372899 0.015315862
0003b0 6b e3 31 be e8 32 86 3e f5 f3 d7 3d 71 5f a4 be
       -0.1737191 0.26210713 0.10544578 -0.32104066
0003c0 4f 01 34 bf 6f 3c c1 be 0a 61 01 3e 16 e9 f4 3c
       -0.70314497 -0.3774142 0.12634674 0.0298963
0003d0 05 90 d0 be 74 cb 52 3d 2a 8b c9 bc 98 1f c9 bc
       -0.40734878 0.05146356 -0.024602491 -0.024551198
0003e0 6d b6 3e bc 1d 04 91 3b ba fd fc 3c 9f d1 4d bb
       -0.011640173 0.004425539 0.030882705 -0.0031405461
0003f0 5b 6c 25 bd 2e a1 06 3f 38 57 0c bc 53 a4 d5 be
       -0.04038654 0.5258969 -0.008565716 -0.41726932

bias f4 [512]
000000 89 c8 34 be 3d e9 2e be 49 42 ca 3d 3c 61 2b 3c
       -0.17654623 -0.17081161 0.09875924 0.010460194
000010 25 1c 7e 3e af 39 82 be b1 de a4 be 73 d4 de 3d
       0.24815424 -0.25434634 -0.3220115 0.10880365
000020 a4 27 1e bc 95 b6 91 3d b2 10 b4 3e ad 36 ac 3e
       -0.009653006 0.07114903 0.35168988 0.33635464
000030 aa 0f d2 bd a3 19 8a be f7 c5 1a be 77 56 8d be
       -0.10256894 -0.26972684 -0.1511458 -0.2760503
000040 5d 6a 94 bd bb 4e af be c8 73 6c 3e 4c d5 c3 be
       -0.0724685 -0.34239754 0.23091042 -0.3824867
000050 1a 06 9c bb c6 7b 9f bd 93 ea 70 be 25 06 b0 3e
       -0.0047614696 -0.0778728 -0.23526983 0.34379688
000060 7a e5 95 3e ea d6 9b 3e f7 ba 8c 3e 61 a0 86 3e
       0.2927664 0.30437404 0.27486393 0.26294234
000070 c8 92 9b be 18 69 3f be 54 c8 2f 3e e8 85 a6 bc
       -0.30385423 -0.18692434 0.17166263 -0.020327523
000080 e0 b5 5c 3e 26 c4 f0 3d 09 cb f4 3d d9 06 a2 3d
       0.21553755 0.11756162 0.119527884 0.07911462
000090 43 f0 12 be 73 5c 1b 3e ef 9c 25 3e f0 f0 89 be
       -0.14349465 0.15171985 0.16173147 -0.26941633
0000a0 32 46 93 3e 27 dc 06 3e 1b 8e 16 3e 3c 42 d8 bd
       0.28764492 0.13169919 0.14702646 -0.10559508
0000b0 7c 34 12 bc 23 cc 7a 3e 0e 38 e7 3d 55 b9 7a be
       -0.008923646 0.24491934 0.112899885 -0.24484761
0000c0 45 22 0e be 0f 09 05 3e 60 e4 2a be 05 ae 1d be
       -0.1388026 0.12991737 -0.1668868 -0.15398414
0000d0 75 7e 17 be 92 5d 89 bd af ba b6 be dc 4f c1 bd
       -0.14794333 -0.067073 -0.35689303 -0.0943906
0000e0 68 c8 e4 bd 5f 65 a0 be 03 32 93 3e 22 b2 6b 3e
       -0.11171037 -0.3132734 0.28749093 0.23017171
0000f0 c6 b8 b9 bd 3d 35 88 3e d5 83 ad be 30 e4 4d be
       -0.09068446 0.26603118 -0.33889642 -0.20106578
000100 1e bf 0a be 2d 23 63 bd e4 b8 c4 3b a4 08 68 be
       -0.13549468 -0.055453468 0.006003486 -0.22659546
000110 1b 6c 35 3e e3 59 bf bd b7 20 c8 3d d6 ee 39 3e
       0.1771702 -0.093433164 0.09771865 0.18157515
000120 ec 91 94 be 34 5c 84 be ba 30 ac 3e 8e b3 83 bd
       -0.2901758 -0.25851595 0.33630925 -0.06430732
000130 ee 46 e2 be d8 64 37 3e 74 77 21 be 1d 2b 86 3e
       -0.4419474 0.17909563 -0.15768224 0.26204768
000140 79 86 24 3e 77 11 5e 3e 73 31 c0 3c 35 6c 96 be
       0.16066922 0.2168635 0.02346108 -0.2937943
000150 95 db 04 bd 30 71 92 b9 11 ef 3a 3e d9 06 af 3e
       -0.032435972 -0.0002793162 0.18255259 0.34184912
000160 8c 73 93 be 4c e3 e4 3e bb 63 27 3d 59 7f ef bd
       -0.28799093 0.44704664 0.040866595 -0.116942115
000170 35 46 e9 3d cc 80 ad 3d 21 6c fd bd 3f 97 67 3e
       0.11390344 0.08471832 -0.123741396 0.2261629
000180 22 f7 a0 be 6e a0 8c 3e a8 31 04 bd df 7d 70 be
       -0.31438547 0.27466148 -0.03227392 -0.23485516
000190 63 36 55 be 73 75 b6 be b0 54 5a be d0 9b b8 be
       -0.20821528 -0.35636482 -0.21321368 -0.36056376
0001a0 ff 9d 6a 3d ad d7 ea 3d c0 20 ac 3e ff d6 0e be
       0.057279583 0.11466918 0.33618736 -0.13949202
0001b0 73 83 d0 bc 67 af c8 3d f6 07 a3 3e 74 5a 06 be
       -0.025453305 0.0979908 0.3184201 -0.13120443
0001c0 c4 d0 93 be ad 13 f0 bb c5 a1 a6 be a4 ba bb be
       -0.28870213 -0.0073265643 -0.32545295 -0.36665833
0001d0 92 9a bb 3e 15 24 00 be 99 9a 97 3e 7f 9e b6 3c
       0.36641365 -0.12513764 0.29610136 0.022292374
0001e0 ef 93 e0 3e 28 bb 67 3d 6d 0a 3e 3b 0f aa bc 3e
       0.43862864 0.05657497 0.0028997913 0.36848494
0001f0 7f 7e 80 be 38 e0 3c be 2b 5a 36 3e ff 38 58 3e
       -0.2509651 -0.18444908 0.17807834 0.21115492
000200 00 15 57 be 3b 9d 25 be df a8 e2 b9 c3 89 16 be
       -0.21004105 -0.1617326 -0.00043231898 -0.1470099
000210 85 c6 c9 3e d3 dd 33 3e 08 4d 6c be 26 fb 0e be
       0.3940927 0.17565088 -0.2307626 -0.13962993
000220 fe 5a 61 be 67 b9 a3 be c3 73 a1 3c 4f 53 96 be
       -0.22007367 -0.31977388 0.01970852 -0.29360434
000230 68 b7 9a be fd 16 00 3f 8e ec 98 3d 79 b6 07 be
       -0.30218053 0.5003508 0.07466994 -0.13253202
000240 ae 19 da bd 67 80 9b bc 9f 8e 85 bd 0f a0 a1 be
       -0.10649429 -0.018982125 -0.065213434 -0.31567428
000250 8d 6c ca 3e ca 68 8a 3e d7 9d 31 3c 52 f9 bd be
       0.39535943 0.27033073 0.010840855 -0.3710428
000260 a3 52 5f 3d 22 31 52 be e5 cb bc 3c 50 b1 82 be
       0.054522168 -0.20526555 0.023046443 -0.25525904
000270 c4 5b ea bd c9 84 a9 3e ed 2c 9d 3e 2a 3b a8 3d
       -0.11443284 0.3310912 0.30698338 0.0821441
000280 89 8c b1 3d 98 22 5d be 2d f3 83 be 50 32 db bd
       0.08669383 -0.21595228 -0.25771466 -0.10702956
000290 d4 34 21 3e 0d 8b 37 3e dd c1 e2 3e 89 70 84 3e
       0.15742809 0.17924137 0.4428853 0.25867108
0002a0 f0 b3 ec 3d 4e 37 e6 3d 13 e5 80 3e 2f 38 12 3e
       0.11557758 0.11241017 0.2517477 0.14279245
0002b0 cc e2 07 3e af 70 35 3e a6 4b 1c 3e 45 26 b1 3e
       0.1327011 0.17718767 0.15263233 0.3459951
0002c0 fe ff 64 3e b6 02 3f 3e 8b 56 96 be e4 76 ee bc
       0.22363278 0.18653378 -0.29362902 -0.029109426
0002d0 24 09 c3 bd 58 cf 95 be 6e 4d 76 3e 74 b9 a9 3e
       -0.09523228 -0.29259753 0.24052975 0.33149302
0002e0 75 6d 4e 3e 0a e9 82 3e bf 55 98 3e 05 21 b7 bd
       0.20158942 0.2556842 0.2975292 -0.08941845
0002f0 92 03 93 3e 79 85 56 3c e4 f9 c7 bd d8 59 ca bd
       0.2871366 0.013093346 -0.0976446 -0.098804176
000300 03 bc c9 bd 00 2b 75 bd 53 98 4a be 80 7f c1 3e
       -0.098503135 -0.05985546 -0.1978467 0.37792587
000310 d9 1b 8f be f9 c5 18 3e 3d f1 03 3e 89 37 30 be
       -0.27950934 0.1491927 0.12884994 -0.17208685
000320 85 4a 88 3e 37 b2 b5 3e b9 c7 89 3d bb fb 02 be
       0.26619354 0.3548753 0.06727547 -0.1279134
000330 3f 43 97 3e 0d 65 06 3e cc 8b 7d be 27 1d 6b be
       0.29543492 0.13124485 -0.2476036 -0.2296034
000340 58 83 f9 3a 29 45 43 be 7c d2 39 3d 9a c1 30 3d
       0.0019036336 -0.19069351 0.04536675 0.043153383
000350 d6 82 23 bd 25 b5 71 be f1 70 f3 3b af b8 64 3e
       -0.039919697 -0.23604257 0.007429235 0.22336076
000360 76 97 7e 3e 27 7b ba bd 7d 78 d1 be 79 4b 45 be
       0.24862465 -0.09105521 -0.40912238 -0.19267072
000370 2f a7 d7 bd c5 fd ef bd 2d 49 f6 3d 65 49 a5 3e
       -0.105299346 -0.117183246 0.12025676 0.32282558
000380 08 a5 89 3e 56 ff fb bd 51 5e 13 be 58 4d 97 3e
       0.2688372 -0.12304561 -0.14391448 0.29551196
000390 e0 55 8c 3d 0e ff 79 be 39 e3 11 be 7c 76 27 be
       0.06852317 -0.24413702 -0.14246835 -0.16353792
0003a0 41 19 bb bd 99 98 4d 3e 38 da 0f 3e 04 87 4e be
       -0.09135676 0.20077743 0.14048088 -0.20168692
0003b0 80 e4 b1 3e b5 a0 23 3c f3 fd 51 be bc 3d 98 3e
       0.34744644 0.009987046 -0.2050703 0.297346
0003c0 a4 33 f5 bd 9b e8 7e 3d 8b 49 6a be 16 c8 7d be
       -0.1197274 0.06223355 -0.22879617 -0.24783358
0003d0 1f af 81 3d b8 09 90 3e d5 85 88 be dc fe 8d 3c
       0.0633223 0.28132415 -0.26664606 0.01733344
0003e0 e0 e2 e2 be 66 04 bb 3e b0 4b d8 3e 10 74 5b 3c
       -0.44313717 0.36526793 0.42245245 0.013394371
0003f0 de dc 5f bd e1 a6 58 be 92 9c a3 3e 3b 52 b2 be
       -0.054653995 -0.21157409 0.3195539 -0.34828362

weight f4 [256, 512]
000000 63 0b d4 bc 4f a3 03 3c 39 5c 05 bd 0f 48 a3 bd
       -0.025884336 0.008034541 -0.032558654 -0.079727285
000010 ba 5b 61 3d e0 0a 49 bd 9b 55 52 3c 81 e4 23 3c
       0.055019118 -0.049082637 0.012837793 0.01000321
000020 9a ea 33 bd 09 aa 6d bc d3 09 3a bd 0c ce 9a 3d
       -0.043924905 -0.014505872 -0.045419525 0.075588316
000030 00 ef b6 bd 0f 7e ac 3d e6 d6 2f 3c 30 0c bb bc
       -0.089323044 0.08422481 0.010732388 -0.02283296
000040 55 d8 84 3d 9d 6f 29 bd 2a 30 12 bc fc 58 af bd
       0.064865746 -0.04136621 -0.008922616 -0.08561894
000050 c2 ef 85 bd 88 f6 21 bd c3 61 b4 bc 1d 03 5e 3c
       -0.06539871 -0.03954175 -0.022019273 0.013550547
000060 a5 f6 18 bd 56 e0 c4 bc 0c c6 e4 3c d3 98 e2 bd
       -0.037344594 -0.024032753 0.027926467 -0.11064305
000070 73 b2 9d bd 28 1e 5c 3c a9 e8 28 3c 73 52 6c 3d
       -0.07700052 0.013434924 0.010309377 0.057695817
000080 d0 72 79 bd 35 3f af 3d 69 1c 56 bd 5a 34 84 3a
       -0.06090051 0.08556978 -0.052273188 0.0010086403
000090 46 58 60 bd aa de 2a bc ec 7f 0c 3d 4f e3 86 bc
       -0.054771684 -0.010429064 0.034301683 -0.016465811
0000a0 5c 92 3f 3d 04 a4 97 bd 12 25 ea bc a0 64 bd bc
       0.04677044 -0.074043304 -0.02858213 -0.02311927
0000b0 d3 11 ff ba 37 75 d2 bc 42 7a 3e bd ab ad 5f 3d
       -0.0019460268 -0.025690658 -0.046503313 0.054608982
0000c0 ec f8 59 bb 9e a7 d0 bc 3f 56 91 3d ed 06 85 3d
       -0.0033259941 -0.025470551 0.07096528 0.064954616
0000d0 ae 23 c2 bc 8e ab 1c 3c e5 33 85 bc 57 79 8b bc
       -0.023698654 0.009562386 -0.016260097 -0.017025633
0000e0 a6 2f 2a bd 73 67 77 3d c3 f1 31 bb 13 38 aa bc
       -0.041549347 0.06040139 -0.0027152158 -0.020778691
0000f0 a9 23 48 3d eb 19 16 3c 5c 4c e7 3c d2 11 cf bd
       0.048862133 0.009161453 0.028234653 -0.10110821
000100 83 3d 86 bb ac 8b 9e bd d6 0a 0d bc ed 2e b4 bc
       -0.0040966882 -0.07741484 -0.0086085405 -0.021995032
000110 5e 2c 1a bd ec da 71 3c c3 70 67 bd 73 87 be 3d
       -0.037639968 0.014761668 -0.056504022 0.09303179
000120 90 15 35 bd d6 ce 70 3d cd 9b 8e 3c ff db 08 3c
       -0.044210017 0.058791004 0.017408276 0.008353232
000130 95 db ad bc e2 24 59 3d d6 c5 1d bd 9d ea 62 3d
       -0.021222869 0.05301369 -0.03851875 0.055399526
000140 cb 02 1d 3d b5 fb 6f bd bd b2 a5 3d a5 d8 45 3a
       0.03833274 -0.058589656 0.08090732 0.0007547236
000150 d9 7b 0e bc 3a da 13 bd e5 7c 04 be 2e 5e 14 3d
       -0.00869652 -0.03609679 -0.12938268 0.03622263
000160 1d b4 b9 bd 30 16 84 3d fc 36 22 bb 13 99 32 3b
       -0.09067557 0.064495444 -0.0024752012 0.0027251884
000170 9e a3 6e 3d f0 4c 6d bc 00 f5 14 bd 77 57 a0 bd
       0.058261506 -0.014483675 -0.036366463 -0.078291826
000180 70 76 1e bd 24 85 83 3c a1 a7 6f bd e3 37 a3 bb
       -0.03868717 0.016054697 -0.058509473 -0.0049810275
000190 7f 0d 9d 3c 16 72 0e bd 44 23 66 3c a2 8a 8f bb
       0.019171475 -0.03477677 0.014046494 -0.00438054
0001a0 f5 ae cf 3c 93 c4 b0 bd 99 9c 2d 3b a8 00 10 ba
       0.02535198 -0.086312436 0.0026491045 -0.0005493262
0001b0 bd 3e 0e bc de b4 2b 3d 7a 8d 6e bd 22 7e b2 36
       -0.00868195 0.041920535 -0.05824039 5.319497e-06
0001c0 a0 27 2d bd 65 5a 1e 3d d0 24 b8 3c c7 cb 25 bc
       -0.042274117 0.038660426 0.022478491 -0.010119385
0001d0 e0 38 57 bc 78 4e be 3c 82 86 29 3b 5b cb 3d 3d
       -0.013136119 0.023230776 0.0025867526 0.046336513
0001e0 dd fb 3f 3d 4d 31 a1 3d 3e 41 27 bd f2 cb 2e bd
       0.046871055 0.078707315 -0.040833704 -0.042674966
0001f0 c1 ee 85 bd 9e e9 a6 3d 48 2b 87 bd d1 2b 36 bd
       -0.06539679 0.08150028 -0.06600052 -0.04447538
000200 c5 7c 97 bc e4 e8 7a bd 22 d8 8a 3d 16 f2 97 3d
       -0.018492112 -0.061257258 0.06779505 0.07419221
000210 f9 b6 7e 3a 6f 7d b3 3c a6 dd 4a 3c 3a 46 ca bc
       0.0009716596 0.021910397 0.012381947 -0.02469169
000220 d2 94 bc bc 11 ff 2b 3d 3b 49 09 bc ee 17 80 3d
       -0.023020182 0.041991297 -0.008379276 0.06254564
000230 bb 3b 24 3c 70 ff e7 bb de fd 39 3d 6a e8 69 3d
       0.0100240065 -0.007080011 0.045408122 0.057106413
000240 ca b3 19 bd 7e 24 19 3d f7 b8 a2 bd 1c f6 fe 3c
       -0.037524976 0.037388317 -0.079454355 0.031123213
000250 76 4b 8d bd 59 1e 0f bb c3 61 9d 3c ee 17 45 3d
       -0.06899159 -0.0021838157 0.019211655 0.048118524
000260 bd bd 85 3c 70 ff 38 bd 09 c0 51 3d 6e 52 c7 3d
       0.016325826 -0.04516548 0.05120853 0.09732519
000270 be de b3 3c 2d f1 f4 3c 85 39 9d 3c a8 c8 80 bb
       0.021956798 0.029900158 0.019192467 -0.00393017
000280 17 5b 16 3c 76 d0 54 bb c9 7e d2 3c 64 59 e8 bd
       0.009176991 -0.0032472885 0.025695221 -0.11345175
000290 02 62 86 3d 78 40 84 3c bd a3 a9 3d 59 73 a9 bd
       0.06561662 0.016144022 0.08283184 -0.08273954
0002a0 5f 4c b7 bd 3f 08 10 bc b7 1d 09 3d 22 20 9a bc
       -0.089501135 -0.0087910285 0.033475604 -0.01881415
0002b0 f3 78 39 3c 9d fb 58 3d fa 71 11 bd ed 1d 3b 3d
       0.01132034 0.052974332 -0.035509087 0.045682836
0002c0 94 e5 f5 bb 91 0e e7 3b df 11 2f 3d 64 fa fd 3c
       -0.0075041745 0.007051297 0.042741653 0.031003185
0002d0 0f 7d ce 3c 6e a6 07 bc ba b3 40 3d 0d a3 52 bb
       0.025206117 -0.008279426 0.0470464 -0.0032140643
0002e0 43 63 93 3c b6 dd 85 3b cb 49 3e 3c 33 bd 7d 3d
       0.017991668 0.004085268 0.011614273 0.061948013
0002f0 64 1c 00 bd 7a 6d 36 bd e3 08 66 3d 70 48 53 3c
       -0.031277075 -0.044538 0.05616082 0.012895688
000300 ea c0 cf 3c 83 25 9f 3d 66 6f 00 3b ea 35 8e bc
       0.025360543 0.07770827 0.0019597649 -0.017359693
000310 dd 48 63 3c 2a 76 c6 bc 40 96 a5 bc 06 d9 1c 3d
       0.013872352 -0.024226267 -0.020213246 0.038292907
000320 d1 90 df 3c 40 a8 e6 bd 8e 6b c9 3c e5 80 63 ba
       0.027290734 -0.1126256 0.024587419 -0.00086785696
000330 1e 3b da bd 5c 15 51 3d 34 7f 36 3d aa 8f 43 bd
       -0.10655807 0.05104576 0.044554904 -0.04774443
000340 b8 8a 47 bc 26 83 b6 3a 6d 2c 20 bd e1 4d 98 bd
       -0.012179069 0.0013924583 -0.039104868 -0.07436729
000350 ed 25 ac bc 57 0e 0d bd 4b a3 62 3d d5 a4 30 3d
       -0.021014178 -0.034437504 0.05533151 0.043125946
000360 3e c2 85 bd 13 e4 92 bc 84 6b a1 3b 6f 90 3b 3d
       -0.065311894 -0.01793102 0.004926147 0.04579204
000370 84 ef b0 3d ab 7e 10 bd ab be 2a bd 86 6b 06 bc
       0.08639434 -0.03527705 -0.04168574 -0.0082043465
000380 05 87 e0 bc 2f e4 2e bd 10 6f 96 bb 5e a8 90 bc
       -0.027408132 -0.04269808 -0.0045908764 -0.017658409
000390 dc 61 e9 3c 91 53 83 3c 84 6b d5 bd 02 ff e8 bc
       0.028489046 0.016031059 -0.104208976 -0.02844191
0003a0 b0 97 8b bc 9d 77 59 bd 43 38 2c bc 22 8c d4 bc
       -0.017040104 -0.053092588 -0.010511461 -0.025945727
0003b0 85 d0 24 3c ca b9 18 3d 89 19 21 3d 82 6c 79 bd
       0.010059481 0.037286557 0.039330993 -0.060894497
0003c0 6b 28 09 3d 54 39 cb 3c 2d 2c 45 bd 85 d6 13 bd
       0.03348581 0.02480761 -0.048137832 -0.036093254
0003d0 b9 fd 08 3a d2 d7 21 bd e1 71 a8 3d 04 43 13 bd
       0.0005225796 -0.039512463 0.08224846 -0.035952583
0003e0 94 b2 19 3d f3 53 b8 bb c2 c8 a1 bd c8 80 2a bd
       0.03752382 -0.005625242 -0.0789962 -0.04162672
0003f0 22 31 83 3c c7 0f b4 bc 25 65 94 bd a4 26 34 3d
       0.01601464 -0.02198018 -0.07245854 0.043982163

bias f4 [256]
000000 f1 99 6b bc 40 bd 1e be 27 49 88 bd cd 56 9f bc
       -0.014379964 -0.1550188 -0.06654578 -0.01945057
000010 88 df 1a 3d ab 36 eb bd 00 9a d8 bc 9f 5f 9b be
       0.037810832 -0.114850365 -0.02644062 -0.3034639
000020 8b be a3 bc 6a a6 e5 bb c3 73 ba bc e5 b2 e5 bd
       -0.019988319 -0.0070083635 -0.022760278 -0.11215762
000030 ee 82 81 be 8f 4e 56 bd 0c 5b 56 be e5 bb 89 bd
       -0.25295204 -0.052321013 -0.20933169 -0.06725291
000040 bb 80 9e 3d 44 54 0b 3d 9c c7 9f be 41 b3 5b bc
       0.07739397 0.03401591 -0.31206977 -0.013409437
000050 a0 ca 53 be ef 3a 32 3d 1a d9 13 3c 3c ef 64 bd
       -0.20682764 0.043513235 0.009023929 -0.055892214
000060 04 67 89 be dd 86 d7 3c e7 eb 91 3b 04 19 d9 38
       -0.26836407 0.026309425 0.0044531706 0.00010352026
000070 49 bb 01 be 0a a1 e3 bd 19 00 2b be d8 46 d6 bd
       -0.126691 -0.111147 -0.16699256 -0.10462731
000080 cf 00 14 3c a2 12 d2 bd 68 7d 72 3b 56 6e eb bd
       0.009033396 -0.1025746 0.0037001017 -0.11495654
000090 4d 32 98 3c 21 fa ac bd c3 ac 70 bd 1a 44 1d 3d
       0.018578673 -0.08446146 -0.05875851 0.038395025
0000a0 df b9 4c bb ab 6e 18 3d 8b c6 12 bd 5c 7b c4 bd
       -0.0031238717 0.037214916 -0.035833877 -0.095938414
0000b0 d9 f4 8f 3c 5c ca d1 bd ff d5 51 3d 7f 34 6a bd
       0.017572807 -0.10243675 0.051229473 -0.05717897
0000c0 59 f3 02 bd b6 66 81 bd 21 47 f6 3c 31 8b aa bd
       -0.031970356 -0.06318419 0.030063214 -0.0832733
0000d0 2d c5 a7 3b 4f 36 80 3c f3 3e 81 3c bd 5e 04 bd
       0.0051199407 0.015650896 0.015777087 -0.032316912
0000e0 81 ef c5 bb 49 da d1 bd fe 47 35 be 5b 5b 65 bd
       -0.006040514 -0.10246713 -0.17703244 -0.055995326
0000f0 00 83 1e bd a5 86 8c be ad e3 bf bd bd 9e c5 3b
       -0.03869915 -0.27446476 -0.093695976 0.006030886
000100 97 77 f6 bc d6 07 ab bd 84 3b 7c be 7b ba 47 3d
       -0.030086322 -0.08351104 -0.24632078 0.048761826
000110 bc 5e b2 3d 5c 07 13 bd 01 c4 53 be 73 da 2c be
       0.087094754 -0.03589569 -0.20680238 -0.16880207
000120 62 da cb bc 05 f2 bc 3d 08 c4 93 bd 8d b2 f1 bc
       -0.024884406 0.09225849 -0.07215124 -0.029504085
000130 76 5b cd bd ec 1c 57 bb 0e 0e 26 3d 4d 0c 1d be
       -0.100272104 -0.0032823635 0.040540747 -0.15336724
000140 9c b8 9f be 00 3f 18 3d 35 98 a1 bc 91 59 8a bd
       -0.31195533 0.037169456 -0.019725898 -0.06755365
000150 ff f2 68 3d d0 6f 5f 3d ac a5 09 be a0 4d 62 bd
       0.056872364 0.054549992 -0.13442105 -0.05524981
000160 f3 21 83 bd 30 34 31 bd 82 ca 06 be d1 61 c6 bd
       -0.0640296 -0.04326266 -0.13163188 -0.09686626
000170 1b 2b 50 be 9a 3c a2 be 20 8c 1a bd a7 44 f1 bd
       -0.20328943 -0.3168686 -0.03773129 -0.117806725
000180 52 b5 41 be 11 a8 77 be e1 35 aa bd 86 be c0 bd
       -0.18916824 -0.24185206 -0.08311058 -0.094113395
000190 1f d7 37 3d e1 97 80 be 44 f3 a2 bd c5 36 e7 bc
       0.04488289 -0.25115874 -0.079565555 -0.028224358
0001a0 d6 47 4b be 46 14 a2 bc a5 92 eb 3c fc 57 bd 3c
       -0.19851622 -0.019785058 0.028756449 0.023113243
0001b0 61 ff 72 bd ef 06 5f bd 98 c2 24 bd be be d2 bb
       -0.05932558 -0.05444997 -0.04022464 -0.0064314296
0001c0 03 04 54 bc 7b 4e b0 bd 12 e0 3c bd b9 a3 8a bd
       -0.01294041 -0.08608719 -0.046112128 -0.06769509
0001d0 1d e2 bd bd d0 b6 d1 bd 13 79 46 be d2 38 cd bd
       -0.09271643 -0.10239947 -0.19382124 -0.10020603
0001e0 4a 5c dd be 07 e4 56 bd 8f d6 cd 3c 64 08 44 bd
       -0.43234473 -0.052463558 0.025126724 -0.047859564
0001f0 bd ce 2b bd aa 96 1b be 0e 32 6c bd 32 2c 29 be
       -0.041945208 -0.15194193 -0.057664923 -0.16520765
000200 7d 8c 55 be 13 c5 7e bd bb 99 b6 3c e7 20 45 be
       -0.20854373 -0.062199663 0.022290101 -0.19250832
000210 26 97 ce be 60 dc b3 3d b4 59 11 bd c5 59 00 be
       -0.40349692 0.087822676 -0.03548594 -0.12534244
000220 2d 7f 47 bd e0 f2 0e bd a5 cb 58 be a8 3f 9d bd
       -0.04870527 -0.034899592 -0.21171434 -0.07678157
000230 4f 34 b4 bd 62 8f d4 3c b1 bf 79 bd 61 6a 19 bd
       -0.087990396 0.025947277 -0.060973827 -0.037454966
000240 84 4a ef bc ea fe 09 be b6 1b 24 be 70 b1 9f be
       -0.029210337 -0.13476148 -0.16026196 -0.31190062
000250 38 18 02 be fd 73 fe bb 21 ff b6 bc 23 ea ba bd
       -0.12704551 -0.0077652917 -0.022338452 -0.09126689
000260 36 9d 6e bb 3f 14 e1 bd c3 4d f7 bd 66 55 1f be
       -0.0036409623 -0.1099019 -0.12075379 -0.1555992
000270 eb ac c1 3b ec a1 5c bd 5a 4f 8a bc 25 85 c2 bc
       0.005910506 -0.05386536 -0.01688354 -0.023745129
000280 08 23 2a 3d 98 56 4b be 43 9c 19 be e5 0b 40 be
       0.041537315 -0.19857252 -0.15001015 -0.18754537
000290 fe 11 75 bd 08 ec 8d bd 08 db 45 be 9f f9 9b be
       -0.05983161 -0.06929785 -0.19321835 -0.30463883
0002a0 d9 83 e6 bd da cc 80 bc 8f 35 c1 bb 84 94 b7 bc
       -0.11255617 -0.01572268 -0.0058962773 -0.022409685
0002b0 07 2f 99 3d af 72 57 bd 49 7f cc 3d 3a dd a5 3d
       0.07479673 -0.052599605 0.09985215 0.08098836
0002c0 dd 9e d8 be df 26 de bd 87 6f 1a be 54 12 a6 3c
       -0.42308703 -0.10847258 -0.15081607 0.020272411
0002d0 e8 ef 09 bd ea 3f 25 3c 33 75 84 bd b6 37 71 be
       -0.033676058 0.010086039 -0.064676665 -0.23556408
0002e0 f0 ac cc bd 54 6a 3e bd ce b4 d0 bd 07 80 0d bd
       -0.09993923 -0.04648812 -0.10190736 -0.034545925
0002f0 c1 de 2f bd bc 99 6f 3d 6d 6e 38 3d 84 e2 3c be
       -0.042937044 0.058496222 0.045027185 -0.18445784
000300 47 1b 74 3d 9f 72 5d 3c 54 1c 41 be d4 02 d3 bd
       0.059596326 0.013516097 -0.18858463 -0.10303274
000310 50 64 5b bc cc a1 6c bd a1 3f 0e 3c df 9e 86 3c
       -0.013390616 -0.05777149 0.0086821625 0.016433178
000320 6d c6 be bc 3b 5e 08 bd db 2a 3c be 1e 88 80 bd
       -0.023287976 -0.03329299 -0.18375723 -0.06275962
000330 49 53 b6 bd b2 56 c6 bc 7c c9 4a 3d 6c 8d f6 bb
       -0.08902604 -0.024211261 0.049508557 -0.007524183
000340 14 cc 46 bd 49 18 11 bd 1d e6 88 be e1 ce a5 bd
       -0.048534468 -0.03542355 -0.26738063 -0.080961
000350 fc 71 ba bc 84 32 b3 bd cb f3 90 3d d1 f7 87 bc
       -0.02275943 -0.087498695 0.0707775 -0.01659766
000360 b6 74 c2 bd 78 e3 cc 3c d5 f0 8c 3d 71 96 59 bd
       -0.09494917 0.02501081 0.068818726 -0.053121988
000370 b1 22 9d bd 19 62 3e 3d a6 b7 0b 3d 00 21 27 be
       -0.076726325 0.046480272 0.034110688 -0.16321182
000380 aa 94 9b 3d 16 61 e6 bd 63 1f 7b 3c 0e 00 fd bc
       0.07596715 -0.112489864 0.015327307 -0.030883815
000390 9c 1e 89 be 8b 6f 8d 3c 3b fb be bd ff 01 d6 bc
       -0.26781166 0.017265102 -0.09325262 -0.026123999
0003a0 ea e9 cf 3d 2c 3f dd bd ab 3f 96 bd b1 ee 15 3d
       0.101520374 -0.10803065 -0.073363625 0.036604587
0003b0 74 ec a9 bd 92 4a 69 bd 8b c7 8e bd d6 04 a6 3d
       -0.08297053 -0.05695588 -0.069716536 0.08106391
0003c0 fe 3d 90 3d 86 c8 4d bd ad c3 1d 3c 4b 2a f4 3c
       0.07043074 -0.050240062 0.009629172 0.029805323
0003d0 ef 96 f8 bd a9 9c 72 bd 77 5c 99 bd f9 bb c3 bd
       -0.12138163 -0.059231434 -0.074883394 -0.09557337
0003e0 8b 40 16 be 7a c5 9c bd 67 06 2a bd 9c d6 cf 3c
       -0.14673059 -0.07654853 -0.041510012 0.025370888
0003f0 a1 c2 81 be 9b 86 21 bd 7b a1 fc 3c b5 f1 a8 bd
       -0.25343803 -0.03943501 0.030838719 -0.08249227

weight f4 [128, 256]
000000 d0 ec 67 bd 13 00 cb 3c e4 9e 78 3d aa 67 c8 bc
       -0.056622326 0.024780309 0.060698405 -0.024463493
000010 84 0a 56 3d 2e d2 0a 3c ba 1e e9 bb f4 17 cc bc
       0.052256122 0.008472962 -0.0071142586 -0.024913765
000020 25 4e 0a bb 6e 31 26 bd d2 01 9a bd b9 a2 26 3d
       -0.0021103707 -0.040574484 -0.075198784 0.04068253
000030 02 60 86 bc fd 2b 44 3d 82 ef 93 bc 6f c8 11 3d
       -0.016403202 0.047893513 -0.018058542 0.03559154
000040 a3 bb 0a bc 23 45 12 bd a7 7b 97 3d 2e d9 85 bd
       -0.008467588 -0.035710465 0.07396632 -0.06535564
000050 62 b1 e9 3b 19 9f bc 3c 42 a7 92 3b 58 58 9d 3d
       0.0071317414 0.023025082 0.004475505 0.07682866
000060 3f 58 d7 3c 2a 6f 27 3d 9f 02 43 3c cf 0b 1f 3c
       0.026287196 0.0408775 0.01190248 0.009707405
000070 4f 4c 88 bb aa a7 63 bc 01 b6 26 3d b7 8b 0d 3d
       -0.0041594873 -0.013894955 0.040700916 0.03455707
000080 c9 c6 8f 3c 76 88 ab bc 1b dd 0e 3d 01 48 a7 bc
       0.017550843 -0.020939093 0.03487883 -0.020420076
000090 b9 9e 77 3d 27 a5 fd bc 89 95 ea bc a9 0c 95 3c
       0.060454104 -0.03096254 -0.028635757 0.018194513
0000a0 64 1f 0d 3d ba 78 2a bd e9 1f dd 3b b5 94 72 3b
       0.034453765 -0.04161904 0.0067481888 0.0037014906
0000b0 90 f5 e6 bc 77 10 b7 3c 17 33 c8 bb af 48 27 3c
       -0.028193265 0.022346718 -0.006109606 0.0102102
0000c0 b4 35 86 3d 76 ba 11 3e 65 ad 18 3d 43 a0 03 bd
       0.06553212 0.14231285 0.037274737 -0.03213526
0000d0 07 ae da bc ae 60 1e 3d 0b 12 35 3d 91 7d 86 bd
       -0.02669431 0.03866642 0.04420666 -0.06566919
0000e0 3f 99 8c 3c 17 4e 91 bd 71 41 ae bd 26 d4 d1 3b
       0.017162917 -0.070949726 -0.08508576 0.006403464
0000f0 08 e1 d4 3c 6a 20 83 bc ed 6d 56 3d e4 7b dc bc
       0.02598621 -0.016006667 0.052350927 -0.026914544
000100 2f 3a 52 3d 57 4a e0 bd 81 1b a0 bd cf fa bd bc
       0.05132502 -0.10951679 -0.07817746 -0.023190884
000110 15 b1 e7 39 63 81 50 bc d6 6a ac bb 83 39 4e bd
       0.0004419169 -0.012726161 -0.0052617593 -0.050347816
000120 b4 12 96 bc c1 07 c1 3c 22 ad 88 3a cc 12 81 bd
       -0.018319465 0.023563268 0.0010427574 -0.06302413
000130 77 13 33 3c cd 41 ac bb 1c 6c 9d 3d 1f 1c 96 3c
       0.010929934 -0.0052568675 0.07686636 0.018323956
000140 84 a9 5f bd de d0 37 bd 64 a9 98 3c 67 76 21 3d
       -0.054605022 -0.044876926 0.01863546 0.039419558
000150 ab 48 9d bc fd 77 f2 3c 73 ab 4c 3d e4 bf 20 bd
       -0.01919969 0.02959823 0.049968194 -0.0392455
000160 a2 15 57 bc 39 c9 b0 bc 72 18 90 bb 67 35 2a bd
       -0.013127716 -0.021580325 -0.0043974454 -0.041554835
000170 2d 4c 44 bd 72 c7 90 3d 2d f6 98 3b 3e 58 25 3d
       -0.04792421 0.07069291 0.0046680183 0.040367357
000180 77 1e bb bd 7e ef ee bc 13 96 d9 3c c6 4c 46 bb
       -0.0913667 -0.029166933 0.026560819 -0.0030258163
000190 f8 e4 34 3c 86 78 24 3c 6d 32 b9 3c e9 66 57 bc
       0.0110409185 0.010038501 0.022607053 -0.013147094
0001a0 e2 96 1a 3c 32 cd 94 3c 83 b1 05 3c d1 13 58 3d
       0.009435387 0.018164251 0.008159998 0.052753273
0001b0 26 ab 82 bd 3a 15 77 bc 83 87 a5 3c f3 61 2d bd
       -0.063803 -0.015080744 0.020206219 -0.04232974
0001c0 dd 2f ac 3d 64 29 b1 ba 99 eb 99 bc b1 25 7b bd
       0.08407567 -0.0013516364 -0.0187891 -0.061315242
0001d0 0c a9 08 3c 82 21 b9 bc f8 0c 6b bd b5 87 41 bc
       0.008341085 -0.022598986 -0.057385415 -0.01181214
0001e0 c8 12 25 bc 16 d2 00 bd 7f d2 79 3d eb ff 6b bc
       -0.010075279 -0.031450354 0.06099176 -0.014404277
0001f0 ea 11 3e bd cc 35 bd 3c 6e b7 75 3c 3c c1 70 bd
       -0.046403803 0.023096941 0.014997346 -0.058778033
000200 a6 c8 5a bc ee f9 ed 3c c0 12 2f bd df 20 84 ba
       -0.013353502 0.02904984 -0.04274249 -0.0010080597
000210 b9 3f 42 bc 58 40 0a bd 06 c0 69 3c c5 51 1c 3c
       -0.011856013 -0.03375277 0.014266973 0.00954098
000220 af 21 4c 3d 9b e4 cb bc 84 5e a7 3b be c9 fb bc
       0.04983681 -0.024889281 0.0051077027 -0.030735847
000230 7c b2 9c 3d 96 40 d9 3c 4c 45 e8 3c 66 31 eb bc
       0.07651231 0.026520055 0.028353356 -0.028710078
000240 28 15 37 bc ec be 33 3d fa 93 04 3b 2b 5e 0c bd
       -0.011174478 0.04388325 0.0020229802 -0.034269493
000250 3f 15 73 3d 55 60 24 3d a8 3c a3 3d 87 49 30 3d
       0.059346434 0.040130932 0.07970554 0.04303887
000260 ab 50 3a 3d 05 c1 59 bb 6c 98 be bc 51 a9 23 3c
       0.045487087 -0.003322662 -0.02326604 0.009989099
000270 e6 85 c6 bc 8b 4b 49 3d 66 08 99 bc bb 88 af 39
       -0.02423377 0.04914431 -0.018680762 0.00033480473
000280 42 d1 6c bd 3c 95 32 bd bc 50 a2 bd 27 70 a2 bd
       -0.05781675 -0.043599352 -0.07925555 -0.079315476
000290 23 46 b2 bc 8b 41 1c 3d 56 63 91 3c b1 4c 39 3e
       -0.02176196 0.038148444 0.017747562 0.18095662
0002a0 eb 3a 88 3d 8c 71 1a bc be 30 11 3d 62 10 01 3d
       0.06651863 -0.009426486 0.035446875 0.031509764
0002b0 c2 dc 22 3d af 92 e0 3c de 62 27 3c f4 8b 73 bb
       0.039761312 0.027413694 0.010216443 -0.0037162276
0002c0 fb c7 f4 3c d9 f6 5f bd 52 f7 da 3c 26 28 ab bc
       0.029880514 -0.05467877 0.02672926 -0.020893168
0002d0 42 42 3b 3d 7c fd 8b bd df 1a 19 bd 1e 64 b6 bd
       0.045717485 -0.06835458 -0.037379142 -0.089058146
0002e0 61 52 5f bd 14 e9 39 3d 1a 57 4d bd eb 0d bc 3b
       -0.054521922 0.045388296 -0.050131895 0.005738964
0002f0 c9 82 37 bd 45 d8 74 3d 10 22 be 3b 9f c2 9e bc
       -0.04480246 0.059776563 0.0058024004 -0.019379912
000300 11 ed 44 3d 2a aa 70 bd 3c 92 1a 3c 61 4f 9e bc
       0.048077647 -0.05875603 0.009434279 -0.01932496
000310 82 6f 8a 3d 92 d9 d8 bd 72 3e 92 ba 95 5e 82 3d
       0.0675955 -0.10588373 -0.0011157526 0.06365696
000320 ef af 66 bd 07 fb 97 bc 51 e7 b2 bd 76 16 9a bd
       -0.056320127 -0.018552316 -0.08735526 -0.07523815
000330 a0 5e e0 3c 3a e9 a1 3d 93 51 cc bc cb 15 e7 3c
       0.02738887 0.079058126 -0.024941241 0.028208634
000340 91 2b 73 3d ce 97 b6 bb e2 d6 7e 3b d9 c1 da 3c
       0.05936772 -0.0055722957 0.0038885404 0.026703762
000350 7c 95 8b bc 08 a9 a7 37 b4 12 32 3d 0c 26 2e bd
       -0.017039053 1.9986663e-05 0.043474868 -0.042516753
000360 72 af 96 3c 8f 41 95 3c 68 9e 90 bc 42 57 a0 bc
       0.018394206 0.018219737 -0.017653659 -0.019572858
000370 f6 47 ea bc de 09 0e 3d 98 63 25 3d 50 c1 ba 3b
       -0.028598767 0.03467738 0.040378183 0.005699314
000380 f5 27 2a 3c a1 a8 8c 3b 05 db 3a 3d b6 5c 52 3c
       0.010385503 0.004292563 0.04561903 0.012839487
000390 0a b4 6f 3d dd 71 14 bc ba 57 25 bd f2 29 00 3d
       0.058521308 -0.00906035 -0.040366866 0.031290002
0003a0 1f e4 ae 3a 3c 36 b7 3b c8 95 84 bb 31 0c 44 bd
       0.0013343132 0.005591182 -0.0040461756 -0.04786319
0003b0 5f 89 1c bd 54 87 f8 b8 b3 e3 d1 bc e8 b2 85 3c
       -0.038216945 -0.00011850768 -0.02562127 0.01632066
0003c0 19 dd 55 bd 1a bf b4 ba 8a 75 a8 bc 76 ca 32 bd
       -0.05221281 -0.0013789863 -0.02056386 -0.043650113
0003d0 b0 be ab bc e4 a4 66 bd db be 0e bd 93 9f 27 bc
       -0.02096495 -0.056309596 -0.034849983 -0.010230917
0003e0 db 17 33 3b 65 0d 70 3d 2a b8 b5 3d 67 15 29 bc
       0.0027327451 0.058606524 0.08873017 -0.010320044
0003f0 f6 6a 44 bd 6d fa c2 3d d5 ce 66 bd c5 71 92 bd
       -0.04795357 0.09520421 -0.056349594 -0.07150606

bias f4 [128]
000000 1c 74 e6 bc 92 0a 20 3c 3f 59 63 bd b0 73 22 be
       -0.028131537 0.009768145 -0.055505034 -0.15864444
000010 83 7f 5d 3c ae 3f a2 bd bd e3 e6 bd d1 e0 17 bd
       0.013519171 -0.07922302 -0.112739064 -0.037079636
000020 d2 ea a6 bb 0a e3 39 3c 8a e9 a0 3a 76 8d 53 bd
       -0.0050939107 0.011345634 0.0012276631 -0.05164858
000030 6c ff a3 bc 92 aa 3f 3c 17 ee 51 bd 22 a3 03 bd
       -0.020019256 0.011698382 -0.05125245 -0.032137997
000040 11 cd 84 3c 86 b2 9b bd da f8 34 3e 02 09 c6 bc
       0.016211065 -0.0760241 0.17673054 -0.024174217
000050 5e f7 8c 3b 65 f5 4b bd 07 07 83 bd cb 8b 13 bc
       0.0043019494 -0.049794573 -0.06397825 -0.009005497
000060 cf eb 33 3c 91 b6 01 be 21 57 d4 bd 0e 5a d5 3c
       0.010981514 -0.126673 -0.10368181 0.026043918
000070 e7 cf 4b bc 34 fd 77 bb 05 c5 d6 3b 0b 91 95 bd
       -0.0124397045 -0.003784013 0.0065542483 -0.073030554
000080 ac 5a 9d 3a e4 6f bb bc c2 a6 3d bd b7 15 dd 3a
       0.0012005172 -0.022880502 -0.04630161 0.0016867433
000090 13 15 56 bc 12 de 0f bd 1c e9 6c bc 6d cc e1 bb
       -0.013066548 -0.035123892 -0.0144598745 -0.0068908245
0000a0 16 c1 e8 bc e4 f1 15 bc 86 91 a2 3b d9 48 b8 bc
       -0.028412383 -0.0091519095 0.0049611954 -0.022495674
0000b0 ac ba b6 bd 27 8a 39 be 32 f4 56 bc ed 28 1c bc
       -0.089223236 -0.18119107 -0.013119744 -0.009531242
0000c0 0e e0 53 be da f7 2f bd 46 7d a9 bd c1 af ec 3d
       -0.20690939 -0.04296098 -0.08275847 0.1155696
0000d0 1a 17 6c bc 63 4a 81 bd fd 65 a7 bc 0e 0d de bc
       -0.014409805 -0.06313016 -0.020434374 -0.027105834
0000e0 16 99 33 bb 9b 00 54 bd 87 2f 5e bc 05 98 c9 bd
       -0.0027404479 -0.05175839 -0.013561136 -0.098434485
0000f0 72 ec 8a bd c6 f9 a8 3c b0 36 a7 bd 79 96 f4 bc
       -0.067833796 0.020626914 -0.08164728 -0.029856907
000100 fc 63 fc 3a 2e ff 98 bd 7c 11 f3 bc 56 ca 6d bb
       0.0019255872 -0.07470547 -0.029671423 -0.0036283932
000110 72 6c 09 be 61 4e d5 3c d5 41 f4 bc ea 62 a3 bd
       -0.13420275 0.02603835 -0.029816547 -0.07977851
000120 d8 35 83 bd 82 d8 d8 bd f2 37 9c 3c b4 36 7a bd
       -0.06406754 -0.105881706 0.019069646 -0.061087325
000130 55 43 a0 3b 65 8c cb b8 88 73 eb bd 16 c8 e2 be
       0.004890839 -9.705945e-05 -0.11496645 -0.44293278
000140 ef f4 74 bd ef 34 9f 3b 23 a6 65 3c 31 ea 9c bd
       -0.0598039 0.004858605 0.014016661 -0.07661856
000150 0f a7 15 3c 0e 98 50 bd 62 54 c3 bb 37 74 01 bd
       0.009134068 -0.05092626 -0.005960987 -0.03160497
000160 f0 de 80 bc f6 5e a2 bd 34 f4 0e 3e a6 31 c8 39
       -0.015731305 -0.079282686 0.13960344 0.00038183964
000170 2c 2e b1 bc c0 3a d4 bc e4 52 a5 bc e4 0a 4e bc
       -0.021628462 -0.02590692 -0.020181127 -0.012575839
000180 a1 c4 0e be 35 ba 02 bd 3d 77 bb bd 25 71 0b 3e
       -0.13942195 -0.031915862 -0.09153602 0.1361738
000190 f5 2a a3 3d 3b c2 86 bd a7 23 07 be 09 88 cb be
       0.07967178 -0.06580015 -0.13197194 -0.39752224
0001a0 55 9b 9c bc a2 2b 72 bc a4 41 6a bd b8 97 de bb
       -0.019117037 -0.014780911 -0.057191506 -0.0067929886
0001b0 6c a2 db bc c2 8d e8 bd 00 64 83 bc 01 9c 35 bd
       -0.026810847 -0.11355163 -0.016038895 -0.04433823
0001c0 c2 1b 92 be 5f 37 46 bd 31 47 ef bc 35 5e 4b bd
       -0.28536803 -0.04839265 -0.029208751 -0.04965039
0001d0 c2 6c 98 bb a6 a7 61 bc f7 3c f0 3d c5 be 82 bc
       -0.004651637 -0.013772881 0.11730378 -0.015960107
0001e0 db f9 c8 bb 14 46 91 bb 70 ce 92 be f3 e2 a0 3c
       -0.0061333007 -0.004433403 -0.28673124 0.019639468
0001f0 83 ca 33 bd ba 59 bd 3c 76 c1 eb bc 05 72 95 be
       -0.043894302 0.023114074 -0.028778773 -0.29188552

weight f4 [6, 128]
000000 3a 08 1e bc a8 c1 e6 bc a9 41 ac 3b b5 84 0a bd
       -0.009645516 -0.028168514 0.0052568507 -0.033817966
000010 7c 47 e2 ba 3f 05 dc bb 4f bd 0d 3d e3 05 dd b9
       -0.0017263736 -0.0067144926 0.034604367 -0.0004215679
000020 94 a0 98 ba 24 5b 68 3c 49 ef c9 38 f3 3f bb 3c
       -0.0011644536 0.014181886 9.628997e-05 0.022857642
000030 49 69 92 3b b9 a8 67 3b d4 06 39 3b dc 2c 06 3d
       0.0044681174 0.003534837 0.002823283 0.032757625
000040 a0 50 de bb 28 e2 1c 3c 3c 0c 57 bd 4a fd 8b 39
       -0.0067845136 0.009575404 -0.052501902 0.0002670086
000050 0d c1 f4 bb c5 85 a8 3a 02 5a 40 3c a8 2c 2c bc
       -0.0074693025 0.0012857249 0.01174021 -0.010508694
000060 f5 fe 1c bd 16 c4 be bc a2 eb d3 3b b0 76 a7 b9
       -0.038329083 -0.02328686 0.0064672986 -0.0003194115
000070 88 47 c5 3c 25 11 43 bb a8 9c ad bb 53 3b ff 3c
       0.02408196 -0.0029764858 -0.005298216 0.031156218
000080 12 2f e0 3b c4 04 03 3c 12 c9 39 3b 59 21 0e ba
       0.0068415487 0.007996742 0.0028348607 -0.00054218393
000090 32 b1 96 3b 30 80 d3 bc 07 d8 09 bc 19 b2 3c be
       0.00459876 -0.02581796 -0.008413321 -0.18427314
0000a0 1d 20 91 bb 21 ce 57 bb ba 8f 09 bd 35 cc d7 ba
       -0.004428877 -0.003292926 -0.033584334 -0.0016464057
0000b0 d4 65 c3 bc 60 2d ca 3c eb 2d 2c 3e 53 86 c0 bc
       -0.023852266 0.02467984 0.16814391 -0.02350155
0000c0 ae fa c0 bd 00 31 88 b9 73 97 56 bc 00 5f e2 ba
       -0.09422813 -0.0002597645 -0.013097632 -0.0017270744
0000d0 34 3a c4 3b be d6 68 3c 74 23 18 bc bf 48 14 3a
       0.0059883837 0.014211355 -0.009285796 0.0005656592
0000e0 2b c1 4c bb 7f 5f 21 3d 2a 6a 76 3b c9 3e 6c bb
       -0.0031243067 0.039397713 0.00375999 -0.0036048165
0000f0 32 97 16 bb c7 9f 18 3c 06 b9 c3 3d 7c c2 8a bc
       -0.0022978303 0.009315438 0.09556775 -0.01693844
000100 82 69 e4 bb 37 4b 80 3a 2c 4e 80 3b 92 b7 0b bc
       -0.0069705853 0.0009788041 0.003915569 -0.008527653
000110 9e b2 dc 3c ae ae ef ba e2 24 82 3a 6f f5 b8 3c
       0.02694064 -0.0018286312 0.0009929205 0.02257797
000120 7c 4a 8f 3a de 5c 5c b9 20 ed 43 ba d6 5b 08 bb
       0.0010932232 -0.0002101543 -0.0007473994 -0.0020806692
000130 5e 25 17 bb 36 8e 1d 3b 56 df 9e 3d 19 fb e2 bc
       -0.0023063044 0.0024041063 0.07757442 -0.027707623
000140 15 7b bd b9 27 05 45 bb 41 b2 03 bb 29 71 d1 bc
       -0.00036140592 -0.0030062885 -0.0020095261 -0.025566654
000150 d4 1b 00 3c 77 8e e4 39 ed 16 4b 3c 88 26 6c b9
       0.007819135 0.00043593693 0.012395603 -0.00022521068
000160 39 b9 8c 3a 5e c9 51 3b cd fb 57 bd ab 40 33 3b
       0.0010736353 0.0032010893 -0.05273037 0.0027351778
000170 be c0 58 bb ed 31 a9 3c 0e 70 22 bc 62 20 b7 bb
       -0.0033073868 0.02065369 -0.009914411 -0.005588577
000180 3f 18 01 3e f7 5b da bb 07 50 82 bc ad 7b 82 3d
       0.12606905 -0.006663795 -0.0159073 0.063712455
000190 ea f2 97 be 0a 84 94 3c 80 47 9a bb 10 34 3d 3d
       -0.29677516 0.018129367 -0.0047082305 0.04619223
0001a0 0e 67 c3 bb 4b c1 e4 bc aa 7d 74 3c 28 6e 36 3b
       -0.005963213 -0.0279242 0.014922539 0.0027836654
0001b0 d0 16 0c bd 9b 1c 1b 3e 92 73 28 bb 99 1b c0 3b
       -0.034201443 0.15147631 -0.002570365 0.005862665
0001c0 b5 43 16 be cf 66 fd 3b bf 7c 02 3d b3 11 91 3c
       -0.14674266 0.007733203 0.03185725 0.017708635
0001d0 3f 6c aa b9 f4 91 1f bb fb 1b 8c bd f2 a7 9f bb
       -0.00032505576 -0.002434847 -0.06841274 -0.0048723156
0001e0 25 ac 6e bb a9 85 7d bb eb f4 a9 3e 56 62 94 3b
       -0.0036418524 -0.0038684404 0.3319467 0.004528324
0001f0 d5 76 e7 3b aa 12 90 3a 7a 2f 80 3a 49 b0 3d 3c
       0.0070637264 0.001099189 0.0009779774 0.011577674
000200 fe 15 60 3b 51 2f 88 bd 67 e7 ec bb 8c 04 6a ba
       0.0034192796 -0.0664965 -0.0072297337 -0.0008927069
000210 fc 35 9d ba 28 26 17 3b 5b b1 59 bd 14 fa b0 3b
       -0.0011994238 0.0023063514 -0.053147655 0.0054009054
000220 da 70 05 3a a6 14 66 3b b7 78 c5 3a 30 88 3d 3c
       0.00050903636 0.0035107522 0.0015065883 0.011568114
000230 47 7c c1 39 c5 4c 42 3b 54 01 e4 39 ff 90 52 3c
       0.00036904422 0.002964781 0.00043488538 0.012851953
000240 69 84 65 3b c2 c0 be bb 45 ca 62 bc 61 07 a8 bb
       0.003502155 -0.0058213184 -0.01384217 -0.0051278328
000250 2d 83 90 3a 38 b4 b6 3a d3 82 82 3b 74 52 af 3c
       0.0011025422 0.0013939207 0.0039828806 0.021401621
000260 50 44 ed 3d ec 3e 86 bc 52 d1 90 3c 4e 93 83 3b
       0.11585295 -0.016387425 0.017677937 0.004015363
000270 79 56 c4 b6 89 a6 8f 3b d9 0f 96 3b cd 70 7e ba
       -5.851322e-06 0.004383866 0.004579526 -0.00097061397
000280 92 bb 48 3b 56 b0 d0 3a 90 6d ce bc 6d 44 92 3a
       0.0030629379 0.0015921693 -0.025198728 0.0011159308
000290 dc 3e c5 ba b6 d2 a6 bc 9c 7b e5 bb 77 40 19 3d
       -0.0015048641 -0.020364147 -0.007003261 0.037414994
0002a0 11 26 3d 3b b3 ae 2a 3b 91 22 1d 3b 7a 06 27 3a
       0.00288618 0.002604407 0.0023976902 0.00063715095
0002b0 b2 44 47 3d 9b d6 8c 3b 5b 38 06 3c e4 58 f6 ba
       0.048649497 0.004298044 0.008192147 -0.0018794802
0002c0 65 d5 87 bd e8 99 1e 3b 4a 45 ab bc 0b 8d 4f bc
       -0.06632499 0.0024200622 -0.020907063 -0.012667905
0002d0 4e ac 8b 3b 00 31 9c 3b 07 de 6d 3b 3b 8e 4c ba
       0.0042624837 0.0047665834 0.0036295669 -0.00078031764
0002e0 6f 8a 0b 3b 9f bb 35 3d 8a 18 da 3b 64 86 bc 3c
       0.002129223 0.044368383 0.0066557573 0.023013301
0002f0 f7 08 45 3b 1f 3a 84 3a 84 ae 65 bd 94 8f f9 3b
       0.0030065158 0.0010088122 -0.056074634 0.007615993
000300 4e ae 17 3c 16 fc 37 bc e8 ee 17 3c e6 9a 2c bc
       0.009257866 -0.011229536 0.009273268 -0.010534978
000310 ad ce 5e 3c fc 15 62 ba 09 6d 8c ba 21 a5 91 bb
       0.01359908 -0.0008624492 -0.0010713647 -0.0044447337
000320 3a b0 0e 3c f3 37 4d 3c c1 6d 0c 3c 0e 6f b6 3b
       0.008709008 0.012525546 0.008571089 0.005567438
000330 98 a9 b2 3a c7 28 8c 3b 32 40 ae 3c e0 34 91 3d
       0.0013630865 0.004277322 0.021270845 0.07090163
000340 4b 7d 2b b9 d5 a4 22 3b f6 95 80 bb 5b 99 5b 3c
       -0.00016354506 0.0024817486 -0.0039241267 0.013403262
000350 0b eb 14 3c e7 ad 87 bc db 38 04 3c da 29 d1 3a
       0.009089242 -0.016562415 0.008070196 0.0015957907
000360 5e 73 a6 3b 2e 0f e2 3b a0 cd bd 3c c1 c3 70 3b
       0.005079671 0.006898782 0.023169339 0.0036737772
000370 a0 72 89 3a c7 ab f0 bb da b8 92 3b 36 e5 65 3c
       0.0010486431 -0.007344696 0.0044776024 0.014031699
000380 11 2c 5e 3b 81 35 f0 3b 6c 04 f9 ba aa e0 b6 3d
       0.0033900777 0.007330597 -0.001899851 0.0892957
000390 b3 61 65 bd 70 e3 9f bb 69 49 fa ba 05 40 b5 bc
       -0.056001376 -0.0048794076 -0.0019095364 -0.022125253
0003a0 e1 31 2e bb b3 b0 e4 3b 86 cd 42 3c 1a 89 7b ba
       -0.0026580023 0.006979072 0.011889821 -0.000959532
0003b0 fc 45 e7 3a 46 69 ad bd a8 2d d0 ba 5b 66 52 3b
       0.0017644758 -0.08467345 -0.0015882747 0.0032104466
0003c0 84 dc 7f bd f3 0b 08 3c 52 99 2f 3d 31 2a 92 3b
       -0.06246616 0.00830363 0.042870827 0.004460596
0003d0 66 a3 60 3b be 5e 5b ba 27 e2 b6 bb 8f 4b 12 3a
       0.003427708 -0.00083683047 -0.0055811587 0.0005580717
0003e0 d1 28 a3 ba b3 50 05 3c b0 3a 41 bc 8a 79 83 3b
       -0.0012448077 0.008136916 -0.011793777 0.0040122913
0003f0 b7 c0 51 bc 1e 17 84 bb a1 7e 56 3b a3 f2 04 3d
       -0.012802294 -0.004031076 0.0032729285 0.03245796

bias f4 [6]
000000 5c f4 37 bd 7f 11 7f 3e 6d d6 b6 3c 24 70 e2 3d
       -0.044910774 0.24909018 0.022319043 0.110565454
000010 ba b6 17 3f 35 c4 14 3e
       0.59263194 0.14527972
